{"format": "graph-model", "generatedBy": "2.21.0", "convertedBy": "TensorFlow.js Converter v3.18.0", "signature": {"inputs": {"input_layer_1": {"name": "input_layer_1:0", "dtype": "DT_FLOAT", "tensorShape": {"dim": [{"size": "-1"}, {"size": "224"}, {"size": "224"}, {"size": "3"}]}}}, "outputs": {"output_0": {"name": "Identity:0", "dtype": "DT_FLOAT", "tensorShape": {"dim": [{"size": "-1"}, {"size": "6"}]}}}}, "modelTopology": {"node": [{"name": "StatefulPartitionedCall/functional_1/efficientnetb0_1/block6d_project_bn_1/batchnorm/sub", "op": "Const", "attr": {"dtype": {"type": "DT_FLOAT"}, "value": {"tensor": {"dtype": "DT_FLOAT", "tensorShape": {"dim": [{"size": "1"}, {"size": "1"}, {"size": "1"}, {"size": "192"}]}}}}}, {"name": "StatefulPartitionedCall/functional_1/efficientnetb0_1/block6d_expand_conv_1/convolution/merged_input", "op": "Const", "attr": {"dtype": {"type": "DT_FLOAT"}, "value": {"tensor": {"dtype": "DT_FLOAT", "tensorShape": {"dim": [{"size": "1"}, {"size": "1"}, {"size": "192"}, {"size": "1152"}]}}}}}, {"name": "StatefulPartitionedCall/functional_1/efficientnetb0_1/block6d_expand_bn_1/batchnorm/sub", "op": "Const", "attr": {"dtype": {"type": "DT_FLOAT"}, "value": {"tensor": {"dtype": "DT_FLOAT", "tensorShape": {"dim": [{"size": "1"}, {"size": "1"}, {"size": "1"}, {"size": "1152"}]}}}}}, {"name": "StatefulPartitionedCall/functional_1/efficientnetb0_1/block6d_dwconv_1/depthwise/ReadVariableOp", "op": "Const", "attr": {"dtype": {"type": "DT_FLOAT"}, "value": {"tensor": {"dtype": "DT_FLOAT", "tensorShape": {"dim": [{"size": "5"}, {"size": "5"}, {"size": "1152"}, {"size": "1"}]}}}}}, {"name": "StatefulPartitionedCall/functional_1/efficientnetb0_1/block6d_bn_1/batchnorm/mul", "op": "Const", "attr": {"dtype": {"type": "DT_FLOAT"}, "value": {"tensor": {"dtype": "DT_FLOAT", "tensorShape": {"dim": [{"size": "1"}, {"size": "1"}, {"size": "1"}, {"size": "1152"}]}}}}}, {"name": "StatefulPartitionedCall/functional_1/efficientnetb0_1/block6d_bn_1/batchnorm/sub", "op": "Const", "attr": {"dtype": {"type": "DT_FLOAT"}, "value": {"tensor": {"dtype": "DT_FLOAT", "tensorShape": {"dim": [{"size": "1"}, {"size": "1"}, {"size": "1"}, {"size": "1152"}]}}}}}, {"name": "StatefulPartitionedCall/functional_1/efficientnetb0_1/block6d_se_squeeze_1/Mean/reduction_indices", "op": "Const", "attr": {"dtype": {"type": "DT_INT32"}, "value": {"tensor": {"dtype": "DT_INT32", "tensorShape": {"dim": [{"size": "2"}]}}}}}, {"name": "StatefulPartitionedCall/functional_1/efficientnetb0_1/block6d_se_reshape_1/strided_slice/stack", "op": "Const", "attr": {"dtype": {"type": "DT_INT32"}, "value": {"tensor": {"dtype": "DT_INT32", "tensorShape": {"dim": [{"size": "1"}]}}}}}, {"name": "StatefulPartitionedCall/functional_1/efficientnetb0_1/block6d_se_reshape_1/strided_slice/stack_1", "op": "Const", "attr": {"dtype": {"type": "DT_INT32"}, "value": {"tensor": {"dtype": "DT_INT32", "tensorShape": {"dim": [{"size": "1"}]}}}}}, {"name": "StatefulPartitionedCall/functional_1/efficientnetb0_1/block6d_se_reshape_1/strided_slice/stack_2", "op": "Const", "attr": {"dtype": {"type": "DT_INT32"}, "value": {"tensor": {"dtype": "DT_INT32", "tensorShape": {"dim": [{"size": "1"}]}}}}}, {"name": "StatefulPartitionedCall/functional_1/efficientnetb0_1/block6d_se_reshape_1/Reshape/shape/1", "op": "Const", "attr": {"dtype": {"type": "DT_INT32"}, "value": {"tensor": {"dtype": "DT_INT32", "tensorShape": {}}}}}, {"name": "StatefulPartitionedCall/functional_1/efficientnetb0_1/block6d_se_reshape_1/Reshape/shape/2", "op": "Const", "attr": {"dtype": {"type": "DT_INT32"}, "value": {"tensor": {"dtype": "DT_INT32", "tensorShape": {}}}}}, {"name": "StatefulPartitionedCall/functional_1/efficientnetb0_1/block6d_se_reshape_1/Reshape/shape/3", "op": "Const", "attr": {"dtype": {"type": "DT_INT32"}, "value": {"tensor": {"dtype": "DT_INT32", "tensorShape": {}}}}}, {"name": "StatefulPartitionedCall/functional_1/efficientnetb0_1/block6d_se_reduce_1/convolution/ReadVariableOp", "op": "Const", "attr": {"dtype": {"type": "DT_FLOAT"}, "value": {"tensor": {"dtype": "DT_FLOAT", "tensorShape": {"dim": [{"size": "1"}, {"size": "1"}, {"size": "1152"}, {"size": "48"}]}}}}}, {"name": "StatefulPartitionedCall/functional_1/efficientnetb0_1/block6d_se_reduce_1/Squeeze", "op": "Const", "attr": {"dtype": {"type": "DT_FLOAT"}, "value": {"tensor": {"dtype": "DT_FLOAT", "tensorShape": {"dim": [{"size": "48"}]}}}}}, {"name": "StatefulPartitionedCall/functional_1/efficientnetb0_1/block6d_se_expand_1/convolution/ReadVariableOp", "op": "Const", "attr": {"dtype": {"type": "DT_FLOAT"}, "value": {"tensor": {"dtype": "DT_FLOAT", "tensorShape": {"dim": [{"size": "1"}, {"size": "1"}, {"size": "48"}, {"size": "1152"}]}}}}}, {"name": "StatefulPartitionedCall/functional_1/efficientnetb0_1/block6d_se_expand_1/Squeeze", "op": "Const", "attr": {"dtype": {"type": "DT_FLOAT"}, "value": {"tensor": {"dtype": "DT_FLOAT", "tensorShape": {"dim": [{"size": "1152"}]}}}}}, {"name": "StatefulPartitionedCall/functional_1/efficientnetb0_1/block6d_project_conv_1/convolution/merged_input", "op": "Const", "attr": {"dtype": {"type": "DT_FLOAT"}, "value": {"tensor": {"dtype": "DT_FLOAT", "tensorShape": {"dim": [{"size": "1"}, {"size": "1"}, {"size": "1152"}, {"size": "192"}]}}}}}, {"name": "StatefulPartitionedCall/functional_1/efficientnetb0_1/block6c_project_bn_1/batchnorm/sub", "op": "Const", "attr": {"dtype": {"type": "DT_FLOAT"}, "value": {"tensor": {"dtype": "DT_FLOAT", "tensorShape": {"dim": [{"size": "1"}, {"size": "1"}, {"size": "1"}, {"size": "192"}]}}}}}, {"name": "StatefulPartitionedCall/functional_1/efficientnetb0_1/block6c_expand_conv_1/convolution/merged_input", "op": "Const", "attr": {"dtype": {"type": "DT_FLOAT"}, "value": {"tensor": {"dtype": "DT_FLOAT", "tensorShape": {"dim": [{"size": "1"}, {"size": "1"}, {"size": "192"}, {"size": "1152"}]}}}}}, {"name": "StatefulPartitionedCall/functional_1/efficientnetb0_1/block6c_expand_bn_1/batchnorm/sub", "op": "Const", "attr": {"dtype": {"type": "DT_FLOAT"}, "value": {"tensor": {"dtype": "DT_FLOAT", "tensorShape": {"dim": [{"size": "1"}, {"size": "1"}, {"size": "1"}, {"size": "1152"}]}}}}}, {"name": "StatefulPartitionedCall/functional_1/efficientnetb0_1/block6c_dwconv_1/depthwise/ReadVariableOp", "op": "Const", "attr": {"dtype": {"type": "DT_FLOAT"}, "value": {"tensor": {"dtype": "DT_FLOAT", "tensorShape": {"dim": [{"size": "5"}, {"size": "5"}, {"size": "1152"}, {"size": "1"}]}}}}}, {"name": "StatefulPartitionedCall/functional_1/efficientnetb0_1/block6c_bn_1/batchnorm/mul", "op": "Const", "attr": {"dtype": {"type": "DT_FLOAT"}, "value": {"tensor": {"dtype": "DT_FLOAT", "tensorShape": {"dim": [{"size": "1"}, {"size": "1"}, {"size": "1"}, {"size": "1152"}]}}}}}, {"name": "StatefulPartitionedCall/functional_1/efficientnetb0_1/block6c_bn_1/batchnorm/sub", "op": "Const", "attr": {"dtype": {"type": "DT_FLOAT"}, "value": {"tensor": {"dtype": "DT_FLOAT", "tensorShape": {"dim": [{"size": "1"}, {"size": "1"}, {"size": "1"}, {"size": "1152"}]}}}}}, {"name": "StatefulPartitionedCall/functional_1/efficientnetb0_1/block6c_se_squeeze_1/Mean/reduction_indices", "op": "Const", "attr": {"dtype": {"type": "DT_INT32"}, "value": {"tensor": {"dtype": "DT_INT32", "tensorShape": {"dim": [{"size": "2"}]}}}}}, {"name": "StatefulPartitionedCall/functional_1/efficientnetb0_1/block6c_se_reshape_1/strided_slice/stack", "op": "Const", "attr": {"dtype": {"type": "DT_INT32"}, "value": {"tensor": {"dtype": "DT_INT32", "tensorShape": {"dim": [{"size": "1"}]}}}}}, {"name": "StatefulPartitionedCall/functional_1/efficientnetb0_1/block6c_se_reshape_1/strided_slice/stack_1", "op": "Const", "attr": {"dtype": {"type": "DT_INT32"}, "value": {"tensor": {"dtype": "DT_INT32", "tensorShape": {"dim": [{"size": "1"}]}}}}}, {"name": "StatefulPartitionedCall/functional_1/efficientnetb0_1/block6c_se_reshape_1/strided_slice/stack_2", "op": "Const", "attr": {"dtype": {"type": "DT_INT32"}, "value": {"tensor": {"dtype": "DT_INT32", "tensorShape": {"dim": [{"size": "1"}]}}}}}, {"name": "StatefulPartitionedCall/functional_1/efficientnetb0_1/block6c_se_reshape_1/Reshape/shape/1", "op": "Const", "attr": {"dtype": {"type": "DT_INT32"}, "value": {"tensor": {"dtype": "DT_INT32", "tensorShape": {}}}}}, {"name": "StatefulPartitionedCall/functional_1/efficientnetb0_1/block6c_se_reshape_1/Reshape/shape/2", "op": "Const", "attr": {"dtype": {"type": "DT_INT32"}, "value": {"tensor": {"dtype": "DT_INT32", "tensorShape": {}}}}}, {"name": "StatefulPartitionedCall/functional_1/efficientnetb0_1/block6c_se_reshape_1/Reshape/shape/3", "op": "Const", "attr": {"dtype": {"type": "DT_INT32"}, "value": {"tensor": {"dtype": "DT_INT32", "tensorShape": {}}}}}, {"name": "StatefulPartitionedCall/functional_1/efficientnetb0_1/block6c_se_reduce_1/convolution/ReadVariableOp", "op": "Const", "attr": {"dtype": {"type": "DT_FLOAT"}, "value": {"tensor": {"dtype": "DT_FLOAT", "tensorShape": {"dim": [{"size": "1"}, {"size": "1"}, {"size": "1152"}, {"size": "48"}]}}}}}, {"name": "StatefulPartitionedCall/functional_1/efficientnetb0_1/block6c_se_reduce_1/Squeeze", "op": "Const", "attr": {"dtype": {"type": "DT_FLOAT"}, "value": {"tensor": {"dtype": "DT_FLOAT", "tensorShape": {"dim": [{"size": "48"}]}}}}}, {"name": "StatefulPartitionedCall/functional_1/efficientnetb0_1/block6c_se_expand_1/convolution/ReadVariableOp", "op": "Const", "attr": {"dtype": {"type": "DT_FLOAT"}, "value": {"tensor": {"dtype": "DT_FLOAT", "tensorShape": {"dim": [{"size": "1"}, {"size": "1"}, {"size": "48"}, {"size": "1152"}]}}}}}, {"name": "StatefulPartitionedCall/functional_1/efficientnetb0_1/block6c_se_expand_1/Squeeze", "op": "Const", "attr": {"dtype": {"type": "DT_FLOAT"}, "value": {"tensor": {"dtype": "DT_FLOAT", "tensorShape": {"dim": [{"size": "1152"}]}}}}}, {"name": "StatefulPartitionedCall/functional_1/efficientnetb0_1/block6c_project_conv_1/convolution/merged_input", "op": "Const", "attr": {"dtype": {"type": "DT_FLOAT"}, "value": {"tensor": {"dtype": "DT_FLOAT", "tensorShape": {"dim": [{"size": "1"}, {"size": "1"}, {"size": "1152"}, {"size": "192"}]}}}}}, {"name": "StatefulPartitionedCall/functional_1/efficientnetb0_1/block6b_project_bn_1/batchnorm/sub", "op": "Const", "attr": {"dtype": {"type": "DT_FLOAT"}, "value": {"tensor": {"dtype": "DT_FLOAT", "tensorShape": {"dim": [{"size": "1"}, {"size": "1"}, {"size": "1"}, {"size": "192"}]}}}}}, {"name": "StatefulPartitionedCall/functional_1/efficientnetb0_1/block6b_expand_conv_1/convolution/merged_input", "op": "Const", "attr": {"dtype": {"type": "DT_FLOAT"}, "value": {"tensor": {"dtype": "DT_FLOAT", "tensorShape": {"dim": [{"size": "1"}, {"size": "1"}, {"size": "192"}, {"size": "1152"}]}}}}}, {"name": "StatefulPartitionedCall/functional_1/efficientnetb0_1/block6b_expand_bn_1/batchnorm/sub", "op": "Const", "attr": {"dtype": {"type": "DT_FLOAT"}, "value": {"tensor": {"dtype": "DT_FLOAT", "tensorShape": {"dim": [{"size": "1"}, {"size": "1"}, {"size": "1"}, {"size": "1152"}]}}}}}, {"name": "StatefulPartitionedCall/functional_1/efficientnetb0_1/block6b_dwconv_1/depthwise/ReadVariableOp", "op": "Const", "attr": {"dtype": {"type": "DT_FLOAT"}, "value": {"tensor": {"dtype": "DT_FLOAT", "tensorShape": {"dim": [{"size": "5"}, {"size": "5"}, {"size": "1152"}, {"size": "1"}]}}}}}, {"name": "StatefulPartitionedCall/functional_1/efficientnetb0_1/block6b_bn_1/batchnorm/mul", "op": "Const", "attr": {"dtype": {"type": "DT_FLOAT"}, "value": {"tensor": {"dtype": "DT_FLOAT", "tensorShape": {"dim": [{"size": "1"}, {"size": "1"}, {"size": "1"}, {"size": "1152"}]}}}}}, {"name": "StatefulPartitionedCall/functional_1/efficientnetb0_1/block6b_bn_1/batchnorm/sub", "op": "Const", "attr": {"dtype": {"type": "DT_FLOAT"}, "value": {"tensor": {"dtype": "DT_FLOAT", "tensorShape": {"dim": [{"size": "1"}, {"size": "1"}, {"size": "1"}, {"size": "1152"}]}}}}}, {"name": "StatefulPartitionedCall/functional_1/efficientnetb0_1/block6b_se_squeeze_1/Mean/reduction_indices", "op": "Const", "attr": {"dtype": {"type": "DT_INT32"}, "value": {"tensor": {"dtype": "DT_INT32", "tensorShape": {"dim": [{"size": "2"}]}}}}}, {"name": "StatefulPartitionedCall/functional_1/efficientnetb0_1/block6b_se_reshape_1/strided_slice/stack", "op": "Const", "attr": {"dtype": {"type": "DT_INT32"}, "value": {"tensor": {"dtype": "DT_INT32", "tensorShape": {"dim": [{"size": "1"}]}}}}}, {"name": "StatefulPartitionedCall/functional_1/efficientnetb0_1/block6b_se_reshape_1/strided_slice/stack_1", "op": "Const", "attr": {"dtype": {"type": "DT_INT32"}, "value": {"tensor": {"dtype": "DT_INT32", "tensorShape": {"dim": [{"size": "1"}]}}}}}, {"name": "StatefulPartitionedCall/functional_1/efficientnetb0_1/block6b_se_reshape_1/strided_slice/stack_2", "op": "Const", "attr": {"dtype": {"type": "DT_INT32"}, "value": {"tensor": {"dtype": "DT_INT32", "tensorShape": {"dim": [{"size": "1"}]}}}}}, {"name": "StatefulPartitionedCall/functional_1/efficientnetb0_1/block6b_se_reshape_1/Reshape/shape/1", "op": "Const", "attr": {"dtype": {"type": "DT_INT32"}, "value": {"tensor": {"dtype": "DT_INT32", "tensorShape": {}}}}}, {"name": "StatefulPartitionedCall/functional_1/efficientnetb0_1/block6b_se_reshape_1/Reshape/shape/2", "op": "Const", "attr": {"dtype": {"type": "DT_INT32"}, "value": {"tensor": {"dtype": "DT_INT32", "tensorShape": {}}}}}, {"name": "StatefulPartitionedCall/functional_1/efficientnetb0_1/block6b_se_reshape_1/Reshape/shape/3", "op": "Const", "attr": {"dtype": {"type": "DT_INT32"}, "value": {"tensor": {"dtype": "DT_INT32", "tensorShape": {}}}}}, {"name": "StatefulPartitionedCall/functional_1/efficientnetb0_1/block6b_se_reduce_1/convolution/ReadVariableOp", "op": "Const", "attr": {"dtype": {"type": "DT_FLOAT"}, "value": {"tensor": {"dtype": "DT_FLOAT", "tensorShape": {"dim": [{"size": "1"}, {"size": "1"}, {"size": "1152"}, {"size": "48"}]}}}}}, {"name": "StatefulPartitionedCall/functional_1/efficientnetb0_1/block6b_se_reduce_1/Squeeze", "op": "Const", "attr": {"dtype": {"type": "DT_FLOAT"}, "value": {"tensor": {"dtype": "DT_FLOAT", "tensorShape": {"dim": [{"size": "48"}]}}}}}, {"name": "StatefulPartitionedCall/functional_1/efficientnetb0_1/block6b_se_expand_1/convolution/ReadVariableOp", "op": "Const", "attr": {"dtype": {"type": "DT_FLOAT"}, "value": {"tensor": {"dtype": "DT_FLOAT", "tensorShape": {"dim": [{"size": "1"}, {"size": "1"}, {"size": "48"}, {"size": "1152"}]}}}}}, {"name": "StatefulPartitionedCall/functional_1/efficientnetb0_1/block6b_se_expand_1/Squeeze", "op": "Const", "attr": {"dtype": {"type": "DT_FLOAT"}, "value": {"tensor": {"dtype": "DT_FLOAT", "tensorShape": {"dim": [{"size": "1152"}]}}}}}, {"name": "StatefulPartitionedCall/functional_1/efficientnetb0_1/block6b_project_conv_1/convolution/merged_input", "op": "Const", "attr": {"dtype": {"type": "DT_FLOAT"}, "value": {"tensor": {"dtype": "DT_FLOAT", "tensorShape": {"dim": [{"size": "1"}, {"size": "1"}, {"size": "1152"}, {"size": "192"}]}}}}}, {"name": "StatefulPartitionedCall/functional_1/efficientnetb0_1/block5c_project_bn_1/batchnorm/sub", "op": "Const", "attr": {"dtype": {"type": "DT_FLOAT"}, "value": {"tensor": {"dtype": "DT_FLOAT", "tensorShape": {"dim": [{"size": "1"}, {"size": "1"}, {"size": "1"}, {"size": "112"}]}}}}}, {"name": "StatefulPartitionedCall/functional_1/efficientnetb0_1/block5c_expand_conv_1/convolution/merged_input", "op": "Const", "attr": {"dtype": {"type": "DT_FLOAT"}, "value": {"tensor": {"dtype": "DT_FLOAT", "tensorShape": {"dim": [{"size": "1"}, {"size": "1"}, {"size": "112"}, {"size": "672"}]}}}}}, {"name": "StatefulPartitionedCall/functional_1/efficientnetb0_1/block5c_expand_bn_1/batchnorm/sub", "op": "Const", "attr": {"dtype": {"type": "DT_FLOAT"}, "value": {"tensor": {"dtype": "DT_FLOAT", "tensorShape": {"dim": [{"size": "1"}, {"size": "1"}, {"size": "1"}, {"size": "672"}]}}}}}, {"name": "StatefulPartitionedCall/functional_1/efficientnetb0_1/block5c_dwconv_1/depthwise/ReadVariableOp", "op": "Const", "attr": {"dtype": {"type": "DT_FLOAT"}, "value": {"tensor": {"dtype": "DT_FLOAT", "tensorShape": {"dim": [{"size": "5"}, {"size": "5"}, {"size": "672"}, {"size": "1"}]}}}}}, {"name": "StatefulPartitionedCall/functional_1/efficientnetb0_1/block5c_bn_1/batchnorm/mul", "op": "Const", "attr": {"dtype": {"type": "DT_FLOAT"}, "value": {"tensor": {"dtype": "DT_FLOAT", "tensorShape": {"dim": [{"size": "1"}, {"size": "1"}, {"size": "1"}, {"size": "672"}]}}}}}, {"name": "StatefulPartitionedCall/functional_1/efficientnetb0_1/block5c_bn_1/batchnorm/sub", "op": "Const", "attr": {"dtype": {"type": "DT_FLOAT"}, "value": {"tensor": {"dtype": "DT_FLOAT", "tensorShape": {"dim": [{"size": "1"}, {"size": "1"}, {"size": "1"}, {"size": "672"}]}}}}}, {"name": "StatefulPartitionedCall/functional_1/efficientnetb0_1/block5c_se_squeeze_1/Mean/reduction_indices", "op": "Const", "attr": {"dtype": {"type": "DT_INT32"}, "value": {"tensor": {"dtype": "DT_INT32", "tensorShape": {"dim": [{"size": "2"}]}}}}}, {"name": "StatefulPartitionedCall/functional_1/efficientnetb0_1/block5c_se_reshape_1/strided_slice/stack", "op": "Const", "attr": {"dtype": {"type": "DT_INT32"}, "value": {"tensor": {"dtype": "DT_INT32", "tensorShape": {"dim": [{"size": "1"}]}}}}}, {"name": "StatefulPartitionedCall/functional_1/efficientnetb0_1/block5c_se_reshape_1/strided_slice/stack_1", "op": "Const", "attr": {"dtype": {"type": "DT_INT32"}, "value": {"tensor": {"dtype": "DT_INT32", "tensorShape": {"dim": [{"size": "1"}]}}}}}, {"name": "StatefulPartitionedCall/functional_1/efficientnetb0_1/block5c_se_reshape_1/strided_slice/stack_2", "op": "Const", "attr": {"dtype": {"type": "DT_INT32"}, "value": {"tensor": {"dtype": "DT_INT32", "tensorShape": {"dim": [{"size": "1"}]}}}}}, {"name": "StatefulPartitionedCall/functional_1/efficientnetb0_1/block5c_se_reshape_1/Reshape/shape/1", "op": "Const", "attr": {"dtype": {"type": "DT_INT32"}, "value": {"tensor": {"dtype": "DT_INT32", "tensorShape": {}}}}}, {"name": "StatefulPartitionedCall/functional_1/efficientnetb0_1/block5c_se_reshape_1/Reshape/shape/2", "op": "Const", "attr": {"dtype": {"type": "DT_INT32"}, "value": {"tensor": {"dtype": "DT_INT32", "tensorShape": {}}}}}, {"name": "StatefulPartitionedCall/functional_1/efficientnetb0_1/block5c_se_reshape_1/Reshape/shape/3", "op": "Const", "attr": {"dtype": {"type": "DT_INT32"}, "value": {"tensor": {"dtype": "DT_INT32", "tensorShape": {}}}}}, {"name": "StatefulPartitionedCall/functional_1/efficientnetb0_1/block5c_se_reduce_1/convolution/ReadVariableOp", "op": "Const", "attr": {"dtype": {"type": "DT_FLOAT"}, "value": {"tensor": {"dtype": "DT_FLOAT", "tensorShape": {"dim": [{"size": "1"}, {"size": "1"}, {"size": "672"}, {"size": "28"}]}}}}}, {"name": "StatefulPartitionedCall/functional_1/efficientnetb0_1/block5c_se_reduce_1/Squeeze", "op": "Const", "attr": {"dtype": {"type": "DT_FLOAT"}, "value": {"tensor": {"dtype": "DT_FLOAT", "tensorShape": {"dim": [{"size": "28"}]}}}}}, {"name": "StatefulPartitionedCall/functional_1/efficientnetb0_1/block5c_se_expand_1/convolution/ReadVariableOp", "op": "Const", "attr": {"dtype": {"type": "DT_FLOAT"}, "value": {"tensor": {"dtype": "DT_FLOAT", "tensorShape": {"dim": [{"size": "1"}, {"size": "1"}, {"size": "28"}, {"size": "672"}]}}}}}, {"name": "StatefulPartitionedCall/functional_1/efficientnetb0_1/block5c_se_expand_1/Squeeze", "op": "Const", "attr": {"dtype": {"type": "DT_FLOAT"}, "value": {"tensor": {"dtype": "DT_FLOAT", "tensorShape": {"dim": [{"size": "672"}]}}}}}, {"name": "StatefulPartitionedCall/functional_1/efficientnetb0_1/block5c_project_conv_1/convolution/merged_input", "op": "Const", "attr": {"dtype": {"type": "DT_FLOAT"}, "value": {"tensor": {"dtype": "DT_FLOAT", "tensorShape": {"dim": [{"size": "1"}, {"size": "1"}, {"size": "672"}, {"size": "112"}]}}}}}, {"name": "StatefulPartitionedCall/functional_1/efficientnetb0_1/block5b_project_bn_1/batchnorm/sub", "op": "Const", "attr": {"dtype": {"type": "DT_FLOAT"}, "value": {"tensor": {"dtype": "DT_FLOAT", "tensorShape": {"dim": [{"size": "1"}, {"size": "1"}, {"size": "1"}, {"size": "112"}]}}}}}, {"name": "StatefulPartitionedCall/functional_1/efficientnetb0_1/block5b_expand_conv_1/convolution/merged_input", "op": "Const", "attr": {"dtype": {"type": "DT_FLOAT"}, "value": {"tensor": {"dtype": "DT_FLOAT", "tensorShape": {"dim": [{"size": "1"}, {"size": "1"}, {"size": "112"}, {"size": "672"}]}}}}}, {"name": "StatefulPartitionedCall/functional_1/efficientnetb0_1/block5b_expand_bn_1/batchnorm/sub", "op": "Const", "attr": {"dtype": {"type": "DT_FLOAT"}, "value": {"tensor": {"dtype": "DT_FLOAT", "tensorShape": {"dim": [{"size": "1"}, {"size": "1"}, {"size": "1"}, {"size": "672"}]}}}}}, {"name": "StatefulPartitionedCall/functional_1/efficientnetb0_1/block5b_dwconv_1/depthwise/ReadVariableOp", "op": "Const", "attr": {"dtype": {"type": "DT_FLOAT"}, "value": {"tensor": {"dtype": "DT_FLOAT", "tensorShape": {"dim": [{"size": "5"}, {"size": "5"}, {"size": "672"}, {"size": "1"}]}}}}}, {"name": "StatefulPartitionedCall/functional_1/efficientnetb0_1/block5b_bn_1/batchnorm/mul", "op": "Const", "attr": {"dtype": {"type": "DT_FLOAT"}, "value": {"tensor": {"dtype": "DT_FLOAT", "tensorShape": {"dim": [{"size": "1"}, {"size": "1"}, {"size": "1"}, {"size": "672"}]}}}}}, {"name": "StatefulPartitionedCall/functional_1/efficientnetb0_1/block5b_bn_1/batchnorm/sub", "op": "Const", "attr": {"dtype": {"type": "DT_FLOAT"}, "value": {"tensor": {"dtype": "DT_FLOAT", "tensorShape": {"dim": [{"size": "1"}, {"size": "1"}, {"size": "1"}, {"size": "672"}]}}}}}, {"name": "StatefulPartitionedCall/functional_1/efficientnetb0_1/block5b_se_squeeze_1/Mean/reduction_indices", "op": "Const", "attr": {"dtype": {"type": "DT_INT32"}, "value": {"tensor": {"dtype": "DT_INT32", "tensorShape": {"dim": [{"size": "2"}]}}}}}, {"name": "StatefulPartitionedCall/functional_1/efficientnetb0_1/block5b_se_reshape_1/strided_slice/stack", "op": "Const", "attr": {"dtype": {"type": "DT_INT32"}, "value": {"tensor": {"dtype": "DT_INT32", "tensorShape": {"dim": [{"size": "1"}]}}}}}, {"name": "StatefulPartitionedCall/functional_1/efficientnetb0_1/block5b_se_reshape_1/strided_slice/stack_1", "op": "Const", "attr": {"dtype": {"type": "DT_INT32"}, "value": {"tensor": {"dtype": "DT_INT32", "tensorShape": {"dim": [{"size": "1"}]}}}}}, {"name": "StatefulPartitionedCall/functional_1/efficientnetb0_1/block5b_se_reshape_1/strided_slice/stack_2", "op": "Const", "attr": {"dtype": {"type": "DT_INT32"}, "value": {"tensor": {"dtype": "DT_INT32", "tensorShape": {"dim": [{"size": "1"}]}}}}}, {"name": "StatefulPartitionedCall/functional_1/efficientnetb0_1/block5b_se_reshape_1/Reshape/shape/1", "op": "Const", "attr": {"dtype": {"type": "DT_INT32"}, "value": {"tensor": {"dtype": "DT_INT32", "tensorShape": {}}}}}, {"name": "StatefulPartitionedCall/functional_1/efficientnetb0_1/block5b_se_reshape_1/Reshape/shape/2", "op": "Const", "attr": {"dtype": {"type": "DT_INT32"}, "value": {"tensor": {"dtype": "DT_INT32", "tensorShape": {}}}}}, {"name": "StatefulPartitionedCall/functional_1/efficientnetb0_1/block5b_se_reshape_1/Reshape/shape/3", "op": "Const", "attr": {"dtype": {"type": "DT_INT32"}, "value": {"tensor": {"dtype": "DT_INT32", "tensorShape": {}}}}}, {"name": "StatefulPartitionedCall/functional_1/efficientnetb0_1/block5b_se_reduce_1/convolution/ReadVariableOp", "op": "Const", "attr": {"dtype": {"type": "DT_FLOAT"}, "value": {"tensor": {"dtype": "DT_FLOAT", "tensorShape": {"dim": [{"size": "1"}, {"size": "1"}, {"size": "672"}, {"size": "28"}]}}}}}, {"name": "StatefulPartitionedCall/functional_1/efficientnetb0_1/block5b_se_reduce_1/Squeeze", "op": "Const", "attr": {"dtype": {"type": "DT_FLOAT"}, "value": {"tensor": {"dtype": "DT_FLOAT", "tensorShape": {"dim": [{"size": "28"}]}}}}}, {"name": "StatefulPartitionedCall/functional_1/efficientnetb0_1/block5b_se_expand_1/convolution/ReadVariableOp", "op": "Const", "attr": {"dtype": {"type": "DT_FLOAT"}, "value": {"tensor": {"dtype": "DT_FLOAT", "tensorShape": {"dim": [{"size": "1"}, {"size": "1"}, {"size": "28"}, {"size": "672"}]}}}}}, {"name": "StatefulPartitionedCall/functional_1/efficientnetb0_1/block5b_se_expand_1/Squeeze", "op": "Const", "attr": {"dtype": {"type": "DT_FLOAT"}, "value": {"tensor": {"dtype": "DT_FLOAT", "tensorShape": {"dim": [{"size": "672"}]}}}}}, {"name": "StatefulPartitionedCall/functional_1/efficientnetb0_1/block5b_project_conv_1/convolution/merged_input", "op": "Const", "attr": {"dtype": {"type": "DT_FLOAT"}, "value": {"tensor": {"dtype": "DT_FLOAT", "tensorShape": {"dim": [{"size": "1"}, {"size": "1"}, {"size": "672"}, {"size": "112"}]}}}}}, {"name": "StatefulPartitionedCall/functional_1/efficientnetb0_1/block4c_project_bn_1/batchnorm/sub", "op": "Const", "attr": {"dtype": {"type": "DT_FLOAT"}, "value": {"tensor": {"dtype": "DT_FLOAT", "tensorShape": {"dim": [{"size": "1"}, {"size": "1"}, {"size": "1"}, {"size": "80"}]}}}}}, {"name": "StatefulPartitionedCall/functional_1/efficientnetb0_1/block4c_expand_conv_1/convolution/merged_input", "op": "Const", "attr": {"dtype": {"type": "DT_FLOAT"}, "value": {"tensor": {"dtype": "DT_FLOAT", "tensorShape": {"dim": [{"size": "1"}, {"size": "1"}, {"size": "80"}, {"size": "480"}]}}}}}, {"name": "StatefulPartitionedCall/functional_1/efficientnetb0_1/block4c_expand_bn_1/batchnorm/sub", "op": "Const", "attr": {"dtype": {"type": "DT_FLOAT"}, "value": {"tensor": {"dtype": "DT_FLOAT", "tensorShape": {"dim": [{"size": "1"}, {"size": "1"}, {"size": "1"}, {"size": "480"}]}}}}}, {"name": "StatefulPartitionedCall/functional_1/efficientnetb0_1/block4c_dwconv_1/depthwise/ReadVariableOp", "op": "Const", "attr": {"dtype": {"type": "DT_FLOAT"}, "value": {"tensor": {"dtype": "DT_FLOAT", "tensorShape": {"dim": [{"size": "3"}, {"size": "3"}, {"size": "480"}, {"size": "1"}]}}}}}, {"name": "StatefulPartitionedCall/functional_1/efficientnetb0_1/block4c_bn_1/batchnorm/mul", "op": "Const", "attr": {"dtype": {"type": "DT_FLOAT"}, "value": {"tensor": {"dtype": "DT_FLOAT", "tensorShape": {"dim": [{"size": "1"}, {"size": "1"}, {"size": "1"}, {"size": "480"}]}}}}}, {"name": "StatefulPartitionedCall/functional_1/efficientnetb0_1/block4c_bn_1/batchnorm/sub", "op": "Const", "attr": {"dtype": {"type": "DT_FLOAT"}, "value": {"tensor": {"dtype": "DT_FLOAT", "tensorShape": {"dim": [{"size": "1"}, {"size": "1"}, {"size": "1"}, {"size": "480"}]}}}}}, {"name": "StatefulPartitionedCall/functional_1/efficientnetb0_1/block4c_se_squeeze_1/Mean/reduction_indices", "op": "Const", "attr": {"dtype": {"type": "DT_INT32"}, "value": {"tensor": {"dtype": "DT_INT32", "tensorShape": {"dim": [{"size": "2"}]}}}}}, {"name": "StatefulPartitionedCall/functional_1/efficientnetb0_1/block4c_se_reshape_1/strided_slice/stack", "op": "Const", "attr": {"dtype": {"type": "DT_INT32"}, "value": {"tensor": {"dtype": "DT_INT32", "tensorShape": {"dim": [{"size": "1"}]}}}}}, {"name": "StatefulPartitionedCall/functional_1/efficientnetb0_1/block4c_se_reshape_1/strided_slice/stack_1", "op": "Const", "attr": {"dtype": {"type": "DT_INT32"}, "value": {"tensor": {"dtype": "DT_INT32", "tensorShape": {"dim": [{"size": "1"}]}}}}}, {"name": "StatefulPartitionedCall/functional_1/efficientnetb0_1/block4c_se_reshape_1/strided_slice/stack_2", "op": "Const", "attr": {"dtype": {"type": "DT_INT32"}, "value": {"tensor": {"dtype": "DT_INT32", "tensorShape": {"dim": [{"size": "1"}]}}}}}, {"name": "StatefulPartitionedCall/functional_1/efficientnetb0_1/block4c_se_reshape_1/Reshape/shape/1", "op": "Const", "attr": {"dtype": {"type": "DT_INT32"}, "value": {"tensor": {"dtype": "DT_INT32", "tensorShape": {}}}}}, {"name": "StatefulPartitionedCall/functional_1/efficientnetb0_1/block4c_se_reshape_1/Reshape/shape/2", "op": "Const", "attr": {"dtype": {"type": "DT_INT32"}, "value": {"tensor": {"dtype": "DT_INT32", "tensorShape": {}}}}}, {"name": "StatefulPartitionedCall/functional_1/efficientnetb0_1/block4c_se_reshape_1/Reshape/shape/3", "op": "Const", "attr": {"dtype": {"type": "DT_INT32"}, "value": {"tensor": {"dtype": "DT_INT32", "tensorShape": {}}}}}, {"name": "StatefulPartitionedCall/functional_1/efficientnetb0_1/block4c_se_reduce_1/convolution/ReadVariableOp", "op": "Const", "attr": {"dtype": {"type": "DT_FLOAT"}, "value": {"tensor": {"dtype": "DT_FLOAT", "tensorShape": {"dim": [{"size": "1"}, {"size": "1"}, {"size": "480"}, {"size": "20"}]}}}}}, {"name": "StatefulPartitionedCall/functional_1/efficientnetb0_1/block4c_se_reduce_1/Squeeze", "op": "Const", "attr": {"dtype": {"type": "DT_FLOAT"}, "value": {"tensor": {"dtype": "DT_FLOAT", "tensorShape": {"dim": [{"size": "20"}]}}}}}, {"name": "StatefulPartitionedCall/functional_1/efficientnetb0_1/block4c_se_expand_1/convolution/ReadVariableOp", "op": "Const", "attr": {"dtype": {"type": "DT_FLOAT"}, "value": {"tensor": {"dtype": "DT_FLOAT", "tensorShape": {"dim": [{"size": "1"}, {"size": "1"}, {"size": "20"}, {"size": "480"}]}}}}}, {"name": "StatefulPartitionedCall/functional_1/efficientnetb0_1/block4c_se_expand_1/Squeeze", "op": "Const", "attr": {"dtype": {"type": "DT_FLOAT"}, "value": {"tensor": {"dtype": "DT_FLOAT", "tensorShape": {"dim": [{"size": "480"}]}}}}}, {"name": "StatefulPartitionedCall/functional_1/efficientnetb0_1/block4c_project_conv_1/convolution/merged_input", "op": "Const", "attr": {"dtype": {"type": "DT_FLOAT"}, "value": {"tensor": {"dtype": "DT_FLOAT", "tensorShape": {"dim": [{"size": "1"}, {"size": "1"}, {"size": "480"}, {"size": "80"}]}}}}}, {"name": "StatefulPartitionedCall/functional_1/efficientnetb0_1/block4b_project_bn_1/batchnorm/sub", "op": "Const", "attr": {"dtype": {"type": "DT_FLOAT"}, "value": {"tensor": {"dtype": "DT_FLOAT", "tensorShape": {"dim": [{"size": "1"}, {"size": "1"}, {"size": "1"}, {"size": "80"}]}}}}}, {"name": "StatefulPartitionedCall/functional_1/efficientnetb0_1/block4b_expand_conv_1/convolution/merged_input", "op": "Const", "attr": {"dtype": {"type": "DT_FLOAT"}, "value": {"tensor": {"dtype": "DT_FLOAT", "tensorShape": {"dim": [{"size": "1"}, {"size": "1"}, {"size": "80"}, {"size": "480"}]}}}}}, {"name": "StatefulPartitionedCall/functional_1/efficientnetb0_1/block4b_expand_bn_1/batchnorm/sub", "op": "Const", "attr": {"dtype": {"type": "DT_FLOAT"}, "value": {"tensor": {"dtype": "DT_FLOAT", "tensorShape": {"dim": [{"size": "1"}, {"size": "1"}, {"size": "1"}, {"size": "480"}]}}}}}, {"name": "StatefulPartitionedCall/functional_1/efficientnetb0_1/block4b_dwconv_1/depthwise/ReadVariableOp", "op": "Const", "attr": {"dtype": {"type": "DT_FLOAT"}, "value": {"tensor": {"dtype": "DT_FLOAT", "tensorShape": {"dim": [{"size": "3"}, {"size": "3"}, {"size": "480"}, {"size": "1"}]}}}}}, {"name": "StatefulPartitionedCall/functional_1/efficientnetb0_1/block4b_bn_1/batchnorm/mul", "op": "Const", "attr": {"dtype": {"type": "DT_FLOAT"}, "value": {"tensor": {"dtype": "DT_FLOAT", "tensorShape": {"dim": [{"size": "1"}, {"size": "1"}, {"size": "1"}, {"size": "480"}]}}}}}, {"name": "StatefulPartitionedCall/functional_1/efficientnetb0_1/block4b_bn_1/batchnorm/sub", "op": "Const", "attr": {"dtype": {"type": "DT_FLOAT"}, "value": {"tensor": {"dtype": "DT_FLOAT", "tensorShape": {"dim": [{"size": "1"}, {"size": "1"}, {"size": "1"}, {"size": "480"}]}}}}}, {"name": "StatefulPartitionedCall/functional_1/efficientnetb0_1/block4b_se_squeeze_1/Mean/reduction_indices", "op": "Const", "attr": {"dtype": {"type": "DT_INT32"}, "value": {"tensor": {"dtype": "DT_INT32", "tensorShape": {"dim": [{"size": "2"}]}}}}}, {"name": "StatefulPartitionedCall/functional_1/efficientnetb0_1/block4b_se_reshape_1/strided_slice/stack", "op": "Const", "attr": {"dtype": {"type": "DT_INT32"}, "value": {"tensor": {"dtype": "DT_INT32", "tensorShape": {"dim": [{"size": "1"}]}}}}}, {"name": "StatefulPartitionedCall/functional_1/efficientnetb0_1/block4b_se_reshape_1/strided_slice/stack_1", "op": "Const", "attr": {"dtype": {"type": "DT_INT32"}, "value": {"tensor": {"dtype": "DT_INT32", "tensorShape": {"dim": [{"size": "1"}]}}}}}, {"name": "StatefulPartitionedCall/functional_1/efficientnetb0_1/block4b_se_reshape_1/strided_slice/stack_2", "op": "Const", "attr": {"dtype": {"type": "DT_INT32"}, "value": {"tensor": {"dtype": "DT_INT32", "tensorShape": {"dim": [{"size": "1"}]}}}}}, {"name": "StatefulPartitionedCall/functional_1/efficientnetb0_1/block4b_se_reshape_1/Reshape/shape/1", "op": "Const", "attr": {"dtype": {"type": "DT_INT32"}, "value": {"tensor": {"dtype": "DT_INT32", "tensorShape": {}}}}}, {"name": "StatefulPartitionedCall/functional_1/efficientnetb0_1/block4b_se_reshape_1/Reshape/shape/2", "op": "Const", "attr": {"dtype": {"type": "DT_INT32"}, "value": {"tensor": {"dtype": "DT_INT32", "tensorShape": {}}}}}, {"name": "StatefulPartitionedCall/functional_1/efficientnetb0_1/block4b_se_reshape_1/Reshape/shape/3", "op": "Const", "attr": {"dtype": {"type": "DT_INT32"}, "value": {"tensor": {"dtype": "DT_INT32", "tensorShape": {}}}}}, {"name": "StatefulPartitionedCall/functional_1/efficientnetb0_1/block4b_se_reduce_1/convolution/ReadVariableOp", "op": "Const", "attr": {"dtype": {"type": "DT_FLOAT"}, "value": {"tensor": {"dtype": "DT_FLOAT", "tensorShape": {"dim": [{"size": "1"}, {"size": "1"}, {"size": "480"}, {"size": "20"}]}}}}}, {"name": "StatefulPartitionedCall/functional_1/efficientnetb0_1/block4b_se_reduce_1/Squeeze", "op": "Const", "attr": {"dtype": {"type": "DT_FLOAT"}, "value": {"tensor": {"dtype": "DT_FLOAT", "tensorShape": {"dim": [{"size": "20"}]}}}}}, {"name": "StatefulPartitionedCall/functional_1/efficientnetb0_1/block4b_se_expand_1/convolution/ReadVariableOp", "op": "Const", "attr": {"dtype": {"type": "DT_FLOAT"}, "value": {"tensor": {"dtype": "DT_FLOAT", "tensorShape": {"dim": [{"size": "1"}, {"size": "1"}, {"size": "20"}, {"size": "480"}]}}}}}, {"name": "StatefulPartitionedCall/functional_1/efficientnetb0_1/block4b_se_expand_1/Squeeze", "op": "Const", "attr": {"dtype": {"type": "DT_FLOAT"}, "value": {"tensor": {"dtype": "DT_FLOAT", "tensorShape": {"dim": [{"size": "480"}]}}}}}, {"name": "StatefulPartitionedCall/functional_1/efficientnetb0_1/block4b_project_conv_1/convolution/merged_input", "op": "Const", "attr": {"dtype": {"type": "DT_FLOAT"}, "value": {"tensor": {"dtype": "DT_FLOAT", "tensorShape": {"dim": [{"size": "1"}, {"size": "1"}, {"size": "480"}, {"size": "80"}]}}}}}, {"name": "StatefulPartitionedCall/functional_1/efficientnetb0_1/block3b_project_bn_1/batchnorm/sub", "op": "Const", "attr": {"dtype": {"type": "DT_FLOAT"}, "value": {"tensor": {"dtype": "DT_FLOAT", "tensorShape": {"dim": [{"size": "1"}, {"size": "1"}, {"size": "1"}, {"size": "40"}]}}}}}, {"name": "StatefulPartitionedCall/functional_1/efficientnetb0_1/block3b_expand_conv_1/convolution/merged_input", "op": "Const", "attr": {"dtype": {"type": "DT_FLOAT"}, "value": {"tensor": {"dtype": "DT_FLOAT", "tensorShape": {"dim": [{"size": "1"}, {"size": "1"}, {"size": "40"}, {"size": "240"}]}}}}}, {"name": "StatefulPartitionedCall/functional_1/efficientnetb0_1/block3b_expand_bn_1/batchnorm/sub", "op": "Const", "attr": {"dtype": {"type": "DT_FLOAT"}, "value": {"tensor": {"dtype": "DT_FLOAT", "tensorShape": {"dim": [{"size": "1"}, {"size": "1"}, {"size": "1"}, {"size": "240"}]}}}}}, {"name": "StatefulPartitionedCall/functional_1/efficientnetb0_1/block3b_dwconv_1/depthwise/ReadVariableOp", "op": "Const", "attr": {"dtype": {"type": "DT_FLOAT"}, "value": {"tensor": {"dtype": "DT_FLOAT", "tensorShape": {"dim": [{"size": "5"}, {"size": "5"}, {"size": "240"}, {"size": "1"}]}}}}}, {"name": "StatefulPartitionedCall/functional_1/efficientnetb0_1/block3b_bn_1/batchnorm/mul", "op": "Const", "attr": {"dtype": {"type": "DT_FLOAT"}, "value": {"tensor": {"dtype": "DT_FLOAT", "tensorShape": {"dim": [{"size": "1"}, {"size": "1"}, {"size": "1"}, {"size": "240"}]}}}}}, {"name": "StatefulPartitionedCall/functional_1/efficientnetb0_1/block3b_bn_1/batchnorm/sub", "op": "Const", "attr": {"dtype": {"type": "DT_FLOAT"}, "value": {"tensor": {"dtype": "DT_FLOAT", "tensorShape": {"dim": [{"size": "1"}, {"size": "1"}, {"size": "1"}, {"size": "240"}]}}}}}, {"name": "StatefulPartitionedCall/functional_1/efficientnetb0_1/block3b_se_squeeze_1/Mean/reduction_indices", "op": "Const", "attr": {"dtype": {"type": "DT_INT32"}, "value": {"tensor": {"dtype": "DT_INT32", "tensorShape": {"dim": [{"size": "2"}]}}}}}, {"name": "StatefulPartitionedCall/functional_1/efficientnetb0_1/block3b_se_reshape_1/strided_slice/stack", "op": "Const", "attr": {"dtype": {"type": "DT_INT32"}, "value": {"tensor": {"dtype": "DT_INT32", "tensorShape": {"dim": [{"size": "1"}]}}}}}, {"name": "StatefulPartitionedCall/functional_1/efficientnetb0_1/block3b_se_reshape_1/strided_slice/stack_1", "op": "Const", "attr": {"dtype": {"type": "DT_INT32"}, "value": {"tensor": {"dtype": "DT_INT32", "tensorShape": {"dim": [{"size": "1"}]}}}}}, {"name": "StatefulPartitionedCall/functional_1/efficientnetb0_1/block3b_se_reshape_1/strided_slice/stack_2", "op": "Const", "attr": {"dtype": {"type": "DT_INT32"}, "value": {"tensor": {"dtype": "DT_INT32", "tensorShape": {"dim": [{"size": "1"}]}}}}}, {"name": "StatefulPartitionedCall/functional_1/efficientnetb0_1/block3b_se_reshape_1/Reshape/shape/1", "op": "Const", "attr": {"dtype": {"type": "DT_INT32"}, "value": {"tensor": {"dtype": "DT_INT32", "tensorShape": {}}}}}, {"name": "StatefulPartitionedCall/functional_1/efficientnetb0_1/block3b_se_reshape_1/Reshape/shape/2", "op": "Const", "attr": {"dtype": {"type": "DT_INT32"}, "value": {"tensor": {"dtype": "DT_INT32", "tensorShape": {}}}}}, {"name": "StatefulPartitionedCall/functional_1/efficientnetb0_1/block3b_se_reshape_1/Reshape/shape/3", "op": "Const", "attr": {"dtype": {"type": "DT_INT32"}, "value": {"tensor": {"dtype": "DT_INT32", "tensorShape": {}}}}}, {"name": "StatefulPartitionedCall/functional_1/efficientnetb0_1/block3b_se_reduce_1/convolution/ReadVariableOp", "op": "Const", "attr": {"dtype": {"type": "DT_FLOAT"}, "value": {"tensor": {"dtype": "DT_FLOAT", "tensorShape": {"dim": [{"size": "1"}, {"size": "1"}, {"size": "240"}, {"size": "10"}]}}}}}, {"name": "StatefulPartitionedCall/functional_1/efficientnetb0_1/block3b_se_reduce_1/Squeeze", "op": "Const", "attr": {"dtype": {"type": "DT_FLOAT"}, "value": {"tensor": {"dtype": "DT_FLOAT", "tensorShape": {"dim": [{"size": "10"}]}}}}}, {"name": "StatefulPartitionedCall/functional_1/efficientnetb0_1/block3b_se_expand_1/convolution/ReadVariableOp", "op": "Const", "attr": {"dtype": {"type": "DT_FLOAT"}, "value": {"tensor": {"dtype": "DT_FLOAT", "tensorShape": {"dim": [{"size": "1"}, {"size": "1"}, {"size": "10"}, {"size": "240"}]}}}}}, {"name": "StatefulPartitionedCall/functional_1/efficientnetb0_1/block3b_se_expand_1/Squeeze", "op": "Const", "attr": {"dtype": {"type": "DT_FLOAT"}, "value": {"tensor": {"dtype": "DT_FLOAT", "tensorShape": {"dim": [{"size": "240"}]}}}}}, {"name": "StatefulPartitionedCall/functional_1/efficientnetb0_1/block3b_project_conv_1/convolution/merged_input", "op": "Const", "attr": {"dtype": {"type": "DT_FLOAT"}, "value": {"tensor": {"dtype": "DT_FLOAT", "tensorShape": {"dim": [{"size": "1"}, {"size": "1"}, {"size": "240"}, {"size": "40"}]}}}}}, {"name": "StatefulPartitionedCall/functional_1/efficientnetb0_1/block2b_project_bn_1/batchnorm/sub", "op": "Const", "attr": {"dtype": {"type": "DT_FLOAT"}, "value": {"tensor": {"dtype": "DT_FLOAT", "tensorShape": {"dim": [{"size": "1"}, {"size": "1"}, {"size": "1"}, {"size": "24"}]}}}}}, {"name": "StatefulPartitionedCall/functional_1/efficientnetb0_1/block2b_expand_conv_1/convolution/merged_input", "op": "Const", "attr": {"dtype": {"type": "DT_FLOAT"}, "value": {"tensor": {"dtype": "DT_FLOAT", "tensorShape": {"dim": [{"size": "1"}, {"size": "1"}, {"size": "24"}, {"size": "144"}]}}}}}, {"name": "StatefulPartitionedCall/functional_1/efficientnetb0_1/block2b_expand_bn_1/batchnorm/sub", "op": "Const", "attr": {"dtype": {"type": "DT_FLOAT"}, "value": {"tensor": {"dtype": "DT_FLOAT", "tensorShape": {"dim": [{"size": "1"}, {"size": "1"}, {"size": "1"}, {"size": "144"}]}}}}}, {"name": "StatefulPartitionedCall/functional_1/efficientnetb0_1/block2b_dwconv_1/depthwise/ReadVariableOp", "op": "Const", "attr": {"dtype": {"type": "DT_FLOAT"}, "value": {"tensor": {"dtype": "DT_FLOAT", "tensorShape": {"dim": [{"size": "3"}, {"size": "3"}, {"size": "144"}, {"size": "1"}]}}}}}, {"name": "StatefulPartitionedCall/functional_1/efficientnetb0_1/block2b_bn_1/batchnorm/mul", "op": "Const", "attr": {"dtype": {"type": "DT_FLOAT"}, "value": {"tensor": {"dtype": "DT_FLOAT", "tensorShape": {"dim": [{"size": "1"}, {"size": "1"}, {"size": "1"}, {"size": "144"}]}}}}}, {"name": "StatefulPartitionedCall/functional_1/efficientnetb0_1/block2b_bn_1/batchnorm/sub", "op": "Const", "attr": {"dtype": {"type": "DT_FLOAT"}, "value": {"tensor": {"dtype": "DT_FLOAT", "tensorShape": {"dim": [{"size": "1"}, {"size": "1"}, {"size": "1"}, {"size": "144"}]}}}}}, {"name": "StatefulPartitionedCall/functional_1/efficientnetb0_1/block2b_se_squeeze_1/Mean/reduction_indices", "op": "Const", "attr": {"dtype": {"type": "DT_INT32"}, "value": {"tensor": {"dtype": "DT_INT32", "tensorShape": {"dim": [{"size": "2"}]}}}}}, {"name": "StatefulPartitionedCall/functional_1/efficientnetb0_1/block2b_se_reshape_1/strided_slice/stack", "op": "Const", "attr": {"dtype": {"type": "DT_INT32"}, "value": {"tensor": {"dtype": "DT_INT32", "tensorShape": {"dim": [{"size": "1"}]}}}}}, {"name": "StatefulPartitionedCall/functional_1/efficientnetb0_1/block2b_se_reshape_1/strided_slice/stack_1", "op": "Const", "attr": {"dtype": {"type": "DT_INT32"}, "value": {"tensor": {"dtype": "DT_INT32", "tensorShape": {"dim": [{"size": "1"}]}}}}}, {"name": "StatefulPartitionedCall/functional_1/efficientnetb0_1/block2b_se_reshape_1/strided_slice/stack_2", "op": "Const", "attr": {"dtype": {"type": "DT_INT32"}, "value": {"tensor": {"dtype": "DT_INT32", "tensorShape": {"dim": [{"size": "1"}]}}}}}, {"name": "StatefulPartitionedCall/functional_1/efficientnetb0_1/block2b_se_reshape_1/Reshape/shape/1", "op": "Const", "attr": {"dtype": {"type": "DT_INT32"}, "value": {"tensor": {"dtype": "DT_INT32", "tensorShape": {}}}}}, {"name": "StatefulPartitionedCall/functional_1/efficientnetb0_1/block2b_se_reshape_1/Reshape/shape/2", "op": "Const", "attr": {"dtype": {"type": "DT_INT32"}, "value": {"tensor": {"dtype": "DT_INT32", "tensorShape": {}}}}}, {"name": "StatefulPartitionedCall/functional_1/efficientnetb0_1/block2b_se_reshape_1/Reshape/shape/3", "op": "Const", "attr": {"dtype": {"type": "DT_INT32"}, "value": {"tensor": {"dtype": "DT_INT32", "tensorShape": {}}}}}, {"name": "StatefulPartitionedCall/functional_1/efficientnetb0_1/block2b_se_reduce_1/convolution/ReadVariableOp", "op": "Const", "attr": {"dtype": {"type": "DT_FLOAT"}, "value": {"tensor": {"dtype": "DT_FLOAT", "tensorShape": {"dim": [{"size": "1"}, {"size": "1"}, {"size": "144"}, {"size": "6"}]}}}}}, {"name": "StatefulPartitionedCall/functional_1/efficientnetb0_1/block2b_se_reduce_1/Squeeze", "op": "Const", "attr": {"dtype": {"type": "DT_FLOAT"}, "value": {"tensor": {"dtype": "DT_FLOAT", "tensorShape": {"dim": [{"size": "6"}]}}}}}, {"name": "StatefulPartitionedCall/functional_1/efficientnetb0_1/block2b_se_expand_1/convolution/ReadVariableOp", "op": "Const", "attr": {"dtype": {"type": "DT_FLOAT"}, "value": {"tensor": {"dtype": "DT_FLOAT", "tensorShape": {"dim": [{"size": "1"}, {"size": "1"}, {"size": "6"}, {"size": "144"}]}}}}}, {"name": "StatefulPartitionedCall/functional_1/efficientnetb0_1/block2b_se_expand_1/Squeeze", "op": "Const", "attr": {"dtype": {"type": "DT_FLOAT"}, "value": {"tensor": {"dtype": "DT_FLOAT", "tensorShape": {"dim": [{"size": "144"}]}}}}}, {"name": "StatefulPartitionedCall/functional_1/efficientnetb0_1/block2b_project_conv_1/convolution/merged_input", "op": "Const", "attr": {"dtype": {"type": "DT_FLOAT"}, "value": {"tensor": {"dtype": "DT_FLOAT", "tensorShape": {"dim": [{"size": "1"}, {"size": "1"}, {"size": "144"}, {"size": "24"}]}}}}}, {"name": "StatefulPartitionedCall/functional_1/efficientnetb0_1/rescaling_1/Cast/x", "op": "Const", "attr": {"dtype": {"type": "DT_FLOAT"}, "value": {"tensor": {"dtype": "DT_FLOAT", "tensorShape": {}}}}}, {"name": "StatefulPartitionedCall/functional_1/efficientnetb0_1/rescaling_1/add", "op": "Const", "attr": {"dtype": {"type": "DT_FLOAT"}, "value": {"tensor": {"dtype": "DT_FLOAT", "tensorShape": {"dim": [{"size": "1"}, {"size": "1"}, {"size": "1"}, {"size": "3"}]}}}}}, {"name": "StatefulPartitionedCall/functional_1/efficientnetb0_1/normalization_1/truediv", "op": "Const", "attr": {"dtype": {"type": "DT_FLOAT"}, "value": {"tensor": {"dtype": "DT_FLOAT", "tensorShape": {"dim": [{"size": "1"}, {"size": "1"}, {"size": "1"}, {"size": "3"}]}}}}}, {"name": "StatefulPartitionedCall/functional_1/efficientnetb0_1/rescaling_1_2/Cast_1/x", "op": "Const", "attr": {"dtype": {"type": "DT_FLOAT"}, "value": {"tensor": {"dtype": "DT_FLOAT", "tensorShape": {}}}}}, {"name": "StatefulPartitionedCall/functional_1/efficientnetb0_1/stem_conv_pad_1/Const", "op": "Const", "attr": {"dtype": {"type": "DT_INT32"}, "value": {"tensor": {"dtype": "DT_INT32", "tensorShape": {"dim": [{"size": "4"}, {"size": "2"}]}}}}}, {"name": "StatefulPartitionedCall/functional_1/efficientnetb0_1/stem_conv_1/convolution/merged_input", "op": "Const", "attr": {"dtype": {"type": "DT_FLOAT"}, "value": {"tensor": {"dtype": "DT_FLOAT", "tensorShape": {"dim": [{"size": "3"}, {"size": "3"}, {"size": "3"}, {"size": "32"}]}}}}}, {"name": "StatefulPartitionedCall/functional_1/efficientnetb0_1/stem_bn_1/batchnorm/sub", "op": "Const", "attr": {"dtype": {"type": "DT_FLOAT"}, "value": {"tensor": {"dtype": "DT_FLOAT", "tensorShape": {"dim": [{"size": "1"}, {"size": "1"}, {"size": "1"}, {"size": "32"}]}}}}}, {"name": "StatefulPartitionedCall/functional_1/efficientnetb0_1/block1a_dwconv_1/depthwise/ReadVariableOp", "op": "Const", "attr": {"dtype": {"type": "DT_FLOAT"}, "value": {"tensor": {"dtype": "DT_FLOAT", "tensorShape": {"dim": [{"size": "3"}, {"size": "3"}, {"size": "32"}, {"size": "1"}]}}}}}, {"name": "StatefulPartitionedCall/functional_1/efficientnetb0_1/block1a_bn_1/batchnorm/mul", "op": "Const", "attr": {"dtype": {"type": "DT_FLOAT"}, "value": {"tensor": {"dtype": "DT_FLOAT", "tensorShape": {"dim": [{"size": "1"}, {"size": "1"}, {"size": "1"}, {"size": "32"}]}}}}}, {"name": "StatefulPartitionedCall/functional_1/efficientnetb0_1/block1a_bn_1/batchnorm/sub", "op": "Const", "attr": {"dtype": {"type": "DT_FLOAT"}, "value": {"tensor": {"dtype": "DT_FLOAT", "tensorShape": {"dim": [{"size": "1"}, {"size": "1"}, {"size": "1"}, {"size": "32"}]}}}}}, {"name": "StatefulPartitionedCall/functional_1/efficientnetb0_1/block1a_se_squeeze_1/Mean/reduction_indices", "op": "Const", "attr": {"dtype": {"type": "DT_INT32"}, "value": {"tensor": {"dtype": "DT_INT32", "tensorShape": {"dim": [{"size": "2"}]}}}}}, {"name": "StatefulPartitionedCall/functional_1/efficientnetb0_1/block1a_se_reshape_1/strided_slice/stack", "op": "Const", "attr": {"dtype": {"type": "DT_INT32"}, "value": {"tensor": {"dtype": "DT_INT32", "tensorShape": {"dim": [{"size": "1"}]}}}}}, {"name": "StatefulPartitionedCall/functional_1/efficientnetb0_1/block1a_se_reshape_1/strided_slice/stack_1", "op": "Const", "attr": {"dtype": {"type": "DT_INT32"}, "value": {"tensor": {"dtype": "DT_INT32", "tensorShape": {"dim": [{"size": "1"}]}}}}}, {"name": "StatefulPartitionedCall/functional_1/efficientnetb0_1/block1a_se_reshape_1/strided_slice/stack_2", "op": "Const", "attr": {"dtype": {"type": "DT_INT32"}, "value": {"tensor": {"dtype": "DT_INT32", "tensorShape": {"dim": [{"size": "1"}]}}}}}, {"name": "StatefulPartitionedCall/functional_1/efficientnetb0_1/block1a_se_reshape_1/Reshape/shape/1", "op": "Const", "attr": {"dtype": {"type": "DT_INT32"}, "value": {"tensor": {"dtype": "DT_INT32", "tensorShape": {}}}}}, {"name": "StatefulPartitionedCall/functional_1/efficientnetb0_1/block1a_se_reshape_1/Reshape/shape/2", "op": "Const", "attr": {"dtype": {"type": "DT_INT32"}, "value": {"tensor": {"dtype": "DT_INT32", "tensorShape": {}}}}}, {"name": "StatefulPartitionedCall/functional_1/efficientnetb0_1/block1a_se_reshape_1/Reshape/shape/3", "op": "Const", "attr": {"dtype": {"type": "DT_INT32"}, "value": {"tensor": {"dtype": "DT_INT32", "tensorShape": {}}}}}, {"name": "StatefulPartitionedCall/functional_1/efficientnetb0_1/block1a_se_reduce_1/convolution/ReadVariableOp", "op": "Const", "attr": {"dtype": {"type": "DT_FLOAT"}, "value": {"tensor": {"dtype": "DT_FLOAT", "tensorShape": {"dim": [{"size": "1"}, {"size": "1"}, {"size": "32"}, {"size": "8"}]}}}}}, {"name": "StatefulPartitionedCall/functional_1/efficientnetb0_1/block1a_se_reduce_1/Squeeze", "op": "Const", "attr": {"dtype": {"type": "DT_FLOAT"}, "value": {"tensor": {"dtype": "DT_FLOAT", "tensorShape": {"dim": [{"size": "8"}]}}}}}, {"name": "StatefulPartitionedCall/functional_1/efficientnetb0_1/block1a_se_expand_1/convolution/ReadVariableOp", "op": "Const", "attr": {"dtype": {"type": "DT_FLOAT"}, "value": {"tensor": {"dtype": "DT_FLOAT", "tensorShape": {"dim": [{"size": "1"}, {"size": "1"}, {"size": "8"}, {"size": "32"}]}}}}}, {"name": "StatefulPartitionedCall/functional_1/efficientnetb0_1/block1a_se_expand_1/Squeeze", "op": "Const", "attr": {"dtype": {"type": "DT_FLOAT"}, "value": {"tensor": {"dtype": "DT_FLOAT", "tensorShape": {"dim": [{"size": "32"}]}}}}}, {"name": "StatefulPartitionedCall/functional_1/efficientnetb0_1/block1a_project_conv_1/convolution/merged_input", "op": "Const", "attr": {"dtype": {"type": "DT_FLOAT"}, "value": {"tensor": {"dtype": "DT_FLOAT", "tensorShape": {"dim": [{"size": "1"}, {"size": "1"}, {"size": "32"}, {"size": "16"}]}}}}}, {"name": "StatefulPartitionedCall/functional_1/efficientnetb0_1/block1a_project_bn_1/batchnorm/sub", "op": "Const", "attr": {"dtype": {"type": "DT_FLOAT"}, "value": {"tensor": {"dtype": "DT_FLOAT", "tensorShape": {"dim": [{"size": "1"}, {"size": "1"}, {"size": "1"}, {"size": "16"}]}}}}}, {"name": "StatefulPartitionedCall/functional_1/efficientnetb0_1/block2a_expand_conv_1/convolution/merged_input", "op": "Const", "attr": {"dtype": {"type": "DT_FLOAT"}, "value": {"tensor": {"dtype": "DT_FLOAT", "tensorShape": {"dim": [{"size": "1"}, {"size": "1"}, {"size": "16"}, {"size": "96"}]}}}}}, {"name": "StatefulPartitionedCall/functional_1/efficientnetb0_1/block2a_expand_bn_1/batchnorm/sub", "op": "Const", "attr": {"dtype": {"type": "DT_FLOAT"}, "value": {"tensor": {"dtype": "DT_FLOAT", "tensorShape": {"dim": [{"size": "1"}, {"size": "1"}, {"size": "1"}, {"size": "96"}]}}}}}, {"name": "StatefulPartitionedCall/functional_1/efficientnetb0_1/block2a_dwconv_pad_1/Const", "op": "Const", "attr": {"dtype": {"type": "DT_INT32"}, "value": {"tensor": {"dtype": "DT_INT32", "tensorShape": {"dim": [{"size": "4"}, {"size": "2"}]}}}}}, {"name": "StatefulPartitionedCall/functional_1/efficientnetb0_1/block2a_dwconv_1/depthwise/ReadVariableOp", "op": "Const", "attr": {"dtype": {"type": "DT_FLOAT"}, "value": {"tensor": {"dtype": "DT_FLOAT", "tensorShape": {"dim": [{"size": "3"}, {"size": "3"}, {"size": "96"}, {"size": "1"}]}}}}}, {"name": "StatefulPartitionedCall/functional_1/efficientnetb0_1/block2a_bn_1/batchnorm/mul", "op": "Const", "attr": {"dtype": {"type": "DT_FLOAT"}, "value": {"tensor": {"dtype": "DT_FLOAT", "tensorShape": {"dim": [{"size": "1"}, {"size": "1"}, {"size": "1"}, {"size": "96"}]}}}}}, {"name": "StatefulPartitionedCall/functional_1/efficientnetb0_1/block2a_bn_1/batchnorm/sub", "op": "Const", "attr": {"dtype": {"type": "DT_FLOAT"}, "value": {"tensor": {"dtype": "DT_FLOAT", "tensorShape": {"dim": [{"size": "1"}, {"size": "1"}, {"size": "1"}, {"size": "96"}]}}}}}, {"name": "StatefulPartitionedCall/functional_1/efficientnetb0_1/block2a_se_squeeze_1/Mean/reduction_indices", "op": "Const", "attr": {"dtype": {"type": "DT_INT32"}, "value": {"tensor": {"dtype": "DT_INT32", "tensorShape": {"dim": [{"size": "2"}]}}}}}, {"name": "StatefulPartitionedCall/functional_1/efficientnetb0_1/block2a_se_reshape_1/strided_slice/stack", "op": "Const", "attr": {"dtype": {"type": "DT_INT32"}, "value": {"tensor": {"dtype": "DT_INT32", "tensorShape": {"dim": [{"size": "1"}]}}}}}, {"name": "StatefulPartitionedCall/functional_1/efficientnetb0_1/block2a_se_reshape_1/strided_slice/stack_1", "op": "Const", "attr": {"dtype": {"type": "DT_INT32"}, "value": {"tensor": {"dtype": "DT_INT32", "tensorShape": {"dim": [{"size": "1"}]}}}}}, {"name": "StatefulPartitionedCall/functional_1/efficientnetb0_1/block2a_se_reshape_1/strided_slice/stack_2", "op": "Const", "attr": {"dtype": {"type": "DT_INT32"}, "value": {"tensor": {"dtype": "DT_INT32", "tensorShape": {"dim": [{"size": "1"}]}}}}}, {"name": "StatefulPartitionedCall/functional_1/efficientnetb0_1/block2a_se_reshape_1/Reshape/shape/1", "op": "Const", "attr": {"dtype": {"type": "DT_INT32"}, "value": {"tensor": {"dtype": "DT_INT32", "tensorShape": {}}}}}, {"name": "StatefulPartitionedCall/functional_1/efficientnetb0_1/block2a_se_reshape_1/Reshape/shape/2", "op": "Const", "attr": {"dtype": {"type": "DT_INT32"}, "value": {"tensor": {"dtype": "DT_INT32", "tensorShape": {}}}}}, {"name": "StatefulPartitionedCall/functional_1/efficientnetb0_1/block2a_se_reshape_1/Reshape/shape/3", "op": "Const", "attr": {"dtype": {"type": "DT_INT32"}, "value": {"tensor": {"dtype": "DT_INT32", "tensorShape": {}}}}}, {"name": "StatefulPartitionedCall/functional_1/efficientnetb0_1/block2a_se_reduce_1/convolution/ReadVariableOp", "op": "Const", "attr": {"dtype": {"type": "DT_FLOAT"}, "value": {"tensor": {"dtype": "DT_FLOAT", "tensorShape": {"dim": [{"size": "1"}, {"size": "1"}, {"size": "96"}, {"size": "4"}]}}}}}, {"name": "StatefulPartitionedCall/functional_1/efficientnetb0_1/block2a_se_reduce_1/Squeeze", "op": "Const", "attr": {"dtype": {"type": "DT_FLOAT"}, "value": {"tensor": {"dtype": "DT_FLOAT", "tensorShape": {"dim": [{"size": "4"}]}}}}}, {"name": "StatefulPartitionedCall/functional_1/efficientnetb0_1/block2a_se_expand_1/convolution/ReadVariableOp", "op": "Const", "attr": {"dtype": {"type": "DT_FLOAT"}, "value": {"tensor": {"dtype": "DT_FLOAT", "tensorShape": {"dim": [{"size": "1"}, {"size": "1"}, {"size": "4"}, {"size": "96"}]}}}}}, {"name": "StatefulPartitionedCall/functional_1/efficientnetb0_1/block2a_se_expand_1/Squeeze", "op": "Const", "attr": {"dtype": {"type": "DT_FLOAT"}, "value": {"tensor": {"dtype": "DT_FLOAT", "tensorShape": {"dim": [{"size": "96"}]}}}}}, {"name": "StatefulPartitionedCall/functional_1/efficientnetb0_1/block2a_project_conv_1/convolution/merged_input", "op": "Const", "attr": {"dtype": {"type": "DT_FLOAT"}, "value": {"tensor": {"dtype": "DT_FLOAT", "tensorShape": {"dim": [{"size": "1"}, {"size": "1"}, {"size": "96"}, {"size": "24"}]}}}}}, {"name": "StatefulPartitionedCall/functional_1/efficientnetb0_1/block2a_project_bn_1/batchnorm/sub", "op": "Const", "attr": {"dtype": {"type": "DT_FLOAT"}, "value": {"tensor": {"dtype": "DT_FLOAT", "tensorShape": {"dim": [{"size": "1"}, {"size": "1"}, {"size": "1"}, {"size": "24"}]}}}}}, {"name": "StatefulPartitionedCall/functional_1/efficientnetb0_1/block3a_expand_conv_1/convolution/merged_input", "op": "Const", "attr": {"dtype": {"type": "DT_FLOAT"}, "value": {"tensor": {"dtype": "DT_FLOAT", "tensorShape": {"dim": [{"size": "1"}, {"size": "1"}, {"size": "24"}, {"size": "144"}]}}}}}, {"name": "StatefulPartitionedCall/functional_1/efficientnetb0_1/block3a_expand_bn_1/batchnorm/sub", "op": "Const", "attr": {"dtype": {"type": "DT_FLOAT"}, "value": {"tensor": {"dtype": "DT_FLOAT", "tensorShape": {"dim": [{"size": "1"}, {"size": "1"}, {"size": "1"}, {"size": "144"}]}}}}}, {"name": "StatefulPartitionedCall/functional_1/efficientnetb0_1/block3a_dwconv_pad_1/Const", "op": "Const", "attr": {"dtype": {"type": "DT_INT32"}, "value": {"tensor": {"dtype": "DT_INT32", "tensorShape": {"dim": [{"size": "4"}, {"size": "2"}]}}}}}, {"name": "StatefulPartitionedCall/functional_1/efficientnetb0_1/block3a_dwconv_1/depthwise/ReadVariableOp", "op": "Const", "attr": {"dtype": {"type": "DT_FLOAT"}, "value": {"tensor": {"dtype": "DT_FLOAT", "tensorShape": {"dim": [{"size": "5"}, {"size": "5"}, {"size": "144"}, {"size": "1"}]}}}}}, {"name": "StatefulPartitionedCall/functional_1/efficientnetb0_1/block3a_bn_1/batchnorm/mul", "op": "Const", "attr": {"dtype": {"type": "DT_FLOAT"}, "value": {"tensor": {"dtype": "DT_FLOAT", "tensorShape": {"dim": [{"size": "1"}, {"size": "1"}, {"size": "1"}, {"size": "144"}]}}}}}, {"name": "StatefulPartitionedCall/functional_1/efficientnetb0_1/block3a_bn_1/batchnorm/sub", "op": "Const", "attr": {"dtype": {"type": "DT_FLOAT"}, "value": {"tensor": {"dtype": "DT_FLOAT", "tensorShape": {"dim": [{"size": "1"}, {"size": "1"}, {"size": "1"}, {"size": "144"}]}}}}}, {"name": "StatefulPartitionedCall/functional_1/efficientnetb0_1/block3a_se_squeeze_1/Mean/reduction_indices", "op": "Const", "attr": {"dtype": {"type": "DT_INT32"}, "value": {"tensor": {"dtype": "DT_INT32", "tensorShape": {"dim": [{"size": "2"}]}}}}}, {"name": "StatefulPartitionedCall/functional_1/efficientnetb0_1/block3a_se_reshape_1/strided_slice/stack", "op": "Const", "attr": {"dtype": {"type": "DT_INT32"}, "value": {"tensor": {"dtype": "DT_INT32", "tensorShape": {"dim": [{"size": "1"}]}}}}}, {"name": "StatefulPartitionedCall/functional_1/efficientnetb0_1/block3a_se_reshape_1/strided_slice/stack_1", "op": "Const", "attr": {"dtype": {"type": "DT_INT32"}, "value": {"tensor": {"dtype": "DT_INT32", "tensorShape": {"dim": [{"size": "1"}]}}}}}, {"name": "StatefulPartitionedCall/functional_1/efficientnetb0_1/block3a_se_reshape_1/strided_slice/stack_2", "op": "Const", "attr": {"dtype": {"type": "DT_INT32"}, "value": {"tensor": {"dtype": "DT_INT32", "tensorShape": {"dim": [{"size": "1"}]}}}}}, {"name": "StatefulPartitionedCall/functional_1/efficientnetb0_1/block3a_se_reshape_1/Reshape/shape/1", "op": "Const", "attr": {"dtype": {"type": "DT_INT32"}, "value": {"tensor": {"dtype": "DT_INT32", "tensorShape": {}}}}}, {"name": "StatefulPartitionedCall/functional_1/efficientnetb0_1/block3a_se_reshape_1/Reshape/shape/2", "op": "Const", "attr": {"dtype": {"type": "DT_INT32"}, "value": {"tensor": {"dtype": "DT_INT32", "tensorShape": {}}}}}, {"name": "StatefulPartitionedCall/functional_1/efficientnetb0_1/block3a_se_reshape_1/Reshape/shape/3", "op": "Const", "attr": {"dtype": {"type": "DT_INT32"}, "value": {"tensor": {"dtype": "DT_INT32", "tensorShape": {}}}}}, {"name": "StatefulPartitionedCall/functional_1/efficientnetb0_1/block3a_se_reduce_1/convolution/ReadVariableOp", "op": "Const", "attr": {"dtype": {"type": "DT_FLOAT"}, "value": {"tensor": {"dtype": "DT_FLOAT", "tensorShape": {"dim": [{"size": "1"}, {"size": "1"}, {"size": "144"}, {"size": "6"}]}}}}}, {"name": "StatefulPartitionedCall/functional_1/efficientnetb0_1/block3a_se_reduce_1/Squeeze", "op": "Const", "attr": {"dtype": {"type": "DT_FLOAT"}, "value": {"tensor": {"dtype": "DT_FLOAT", "tensorShape": {"dim": [{"size": "6"}]}}}}}, {"name": "StatefulPartitionedCall/functional_1/efficientnetb0_1/block3a_se_expand_1/convolution/ReadVariableOp", "op": "Const", "attr": {"dtype": {"type": "DT_FLOAT"}, "value": {"tensor": {"dtype": "DT_FLOAT", "tensorShape": {"dim": [{"size": "1"}, {"size": "1"}, {"size": "6"}, {"size": "144"}]}}}}}, {"name": "StatefulPartitionedCall/functional_1/efficientnetb0_1/block3a_se_expand_1/Squeeze", "op": "Const", "attr": {"dtype": {"type": "DT_FLOAT"}, "value": {"tensor": {"dtype": "DT_FLOAT", "tensorShape": {"dim": [{"size": "144"}]}}}}}, {"name": "StatefulPartitionedCall/functional_1/efficientnetb0_1/block3a_project_conv_1/convolution/merged_input", "op": "Const", "attr": {"dtype": {"type": "DT_FLOAT"}, "value": {"tensor": {"dtype": "DT_FLOAT", "tensorShape": {"dim": [{"size": "1"}, {"size": "1"}, {"size": "144"}, {"size": "40"}]}}}}}, {"name": "StatefulPartitionedCall/functional_1/efficientnetb0_1/block3a_project_bn_1/batchnorm/sub", "op": "Const", "attr": {"dtype": {"type": "DT_FLOAT"}, "value": {"tensor": {"dtype": "DT_FLOAT", "tensorShape": {"dim": [{"size": "1"}, {"size": "1"}, {"size": "1"}, {"size": "40"}]}}}}}, {"name": "StatefulPartitionedCall/functional_1/efficientnetb0_1/block4a_expand_conv_1/convolution/merged_input", "op": "Const", "attr": {"dtype": {"type": "DT_FLOAT"}, "value": {"tensor": {"dtype": "DT_FLOAT", "tensorShape": {"dim": [{"size": "1"}, {"size": "1"}, {"size": "40"}, {"size": "240"}]}}}}}, {"name": "StatefulPartitionedCall/functional_1/efficientnetb0_1/block4a_expand_bn_1/batchnorm/sub", "op": "Const", "attr": {"dtype": {"type": "DT_FLOAT"}, "value": {"tensor": {"dtype": "DT_FLOAT", "tensorShape": {"dim": [{"size": "1"}, {"size": "1"}, {"size": "1"}, {"size": "240"}]}}}}}, {"name": "StatefulPartitionedCall/functional_1/efficientnetb0_1/block4a_dwconv_pad_1/Const", "op": "Const", "attr": {"dtype": {"type": "DT_INT32"}, "value": {"tensor": {"dtype": "DT_INT32", "tensorShape": {"dim": [{"size": "4"}, {"size": "2"}]}}}}}, {"name": "StatefulPartitionedCall/functional_1/efficientnetb0_1/block4a_dwconv_1/depthwise/ReadVariableOp", "op": "Const", "attr": {"dtype": {"type": "DT_FLOAT"}, "value": {"tensor": {"dtype": "DT_FLOAT", "tensorShape": {"dim": [{"size": "3"}, {"size": "3"}, {"size": "240"}, {"size": "1"}]}}}}}, {"name": "StatefulPartitionedCall/functional_1/efficientnetb0_1/block4a_bn_1/batchnorm/mul", "op": "Const", "attr": {"dtype": {"type": "DT_FLOAT"}, "value": {"tensor": {"dtype": "DT_FLOAT", "tensorShape": {"dim": [{"size": "1"}, {"size": "1"}, {"size": "1"}, {"size": "240"}]}}}}}, {"name": "StatefulPartitionedCall/functional_1/efficientnetb0_1/block4a_bn_1/batchnorm/sub", "op": "Const", "attr": {"dtype": {"type": "DT_FLOAT"}, "value": {"tensor": {"dtype": "DT_FLOAT", "tensorShape": {"dim": [{"size": "1"}, {"size": "1"}, {"size": "1"}, {"size": "240"}]}}}}}, {"name": "StatefulPartitionedCall/functional_1/efficientnetb0_1/block4a_se_squeeze_1/Mean/reduction_indices", "op": "Const", "attr": {"dtype": {"type": "DT_INT32"}, "value": {"tensor": {"dtype": "DT_INT32", "tensorShape": {"dim": [{"size": "2"}]}}}}}, {"name": "StatefulPartitionedCall/functional_1/efficientnetb0_1/block4a_se_reshape_1/strided_slice/stack", "op": "Const", "attr": {"dtype": {"type": "DT_INT32"}, "value": {"tensor": {"dtype": "DT_INT32", "tensorShape": {"dim": [{"size": "1"}]}}}}}, {"name": "StatefulPartitionedCall/functional_1/efficientnetb0_1/block4a_se_reshape_1/strided_slice/stack_1", "op": "Const", "attr": {"dtype": {"type": "DT_INT32"}, "value": {"tensor": {"dtype": "DT_INT32", "tensorShape": {"dim": [{"size": "1"}]}}}}}, {"name": "StatefulPartitionedCall/functional_1/efficientnetb0_1/block4a_se_reshape_1/strided_slice/stack_2", "op": "Const", "attr": {"dtype": {"type": "DT_INT32"}, "value": {"tensor": {"dtype": "DT_INT32", "tensorShape": {"dim": [{"size": "1"}]}}}}}, {"name": "StatefulPartitionedCall/functional_1/efficientnetb0_1/block4a_se_reshape_1/Reshape/shape/1", "op": "Const", "attr": {"dtype": {"type": "DT_INT32"}, "value": {"tensor": {"dtype": "DT_INT32", "tensorShape": {}}}}}, {"name": "StatefulPartitionedCall/functional_1/efficientnetb0_1/block4a_se_reshape_1/Reshape/shape/2", "op": "Const", "attr": {"dtype": {"type": "DT_INT32"}, "value": {"tensor": {"dtype": "DT_INT32", "tensorShape": {}}}}}, {"name": "StatefulPartitionedCall/functional_1/efficientnetb0_1/block4a_se_reshape_1/Reshape/shape/3", "op": "Const", "attr": {"dtype": {"type": "DT_INT32"}, "value": {"tensor": {"dtype": "DT_INT32", "tensorShape": {}}}}}, {"name": "StatefulPartitionedCall/functional_1/efficientnetb0_1/block4a_se_reduce_1/convolution/ReadVariableOp", "op": "Const", "attr": {"dtype": {"type": "DT_FLOAT"}, "value": {"tensor": {"dtype": "DT_FLOAT", "tensorShape": {"dim": [{"size": "1"}, {"size": "1"}, {"size": "240"}, {"size": "10"}]}}}}}, {"name": "StatefulPartitionedCall/functional_1/efficientnetb0_1/block4a_se_reduce_1/Squeeze", "op": "Const", "attr": {"dtype": {"type": "DT_FLOAT"}, "value": {"tensor": {"dtype": "DT_FLOAT", "tensorShape": {"dim": [{"size": "10"}]}}}}}, {"name": "StatefulPartitionedCall/functional_1/efficientnetb0_1/block4a_se_expand_1/convolution/ReadVariableOp", "op": "Const", "attr": {"dtype": {"type": "DT_FLOAT"}, "value": {"tensor": {"dtype": "DT_FLOAT", "tensorShape": {"dim": [{"size": "1"}, {"size": "1"}, {"size": "10"}, {"size": "240"}]}}}}}, {"name": "StatefulPartitionedCall/functional_1/efficientnetb0_1/block4a_se_expand_1/Squeeze", "op": "Const", "attr": {"dtype": {"type": "DT_FLOAT"}, "value": {"tensor": {"dtype": "DT_FLOAT", "tensorShape": {"dim": [{"size": "240"}]}}}}}, {"name": "StatefulPartitionedCall/functional_1/efficientnetb0_1/block4a_project_conv_1/convolution/merged_input", "op": "Const", "attr": {"dtype": {"type": "DT_FLOAT"}, "value": {"tensor": {"dtype": "DT_FLOAT", "tensorShape": {"dim": [{"size": "1"}, {"size": "1"}, {"size": "240"}, {"size": "80"}]}}}}}, {"name": "StatefulPartitionedCall/functional_1/efficientnetb0_1/block4a_project_bn_1/batchnorm/sub", "op": "Const", "attr": {"dtype": {"type": "DT_FLOAT"}, "value": {"tensor": {"dtype": "DT_FLOAT", "tensorShape": {"dim": [{"size": "1"}, {"size": "1"}, {"size": "1"}, {"size": "80"}]}}}}}, {"name": "StatefulPartitionedCall/functional_1/efficientnetb0_1/block5a_expand_conv_1/convolution/merged_input", "op": "Const", "attr": {"dtype": {"type": "DT_FLOAT"}, "value": {"tensor": {"dtype": "DT_FLOAT", "tensorShape": {"dim": [{"size": "1"}, {"size": "1"}, {"size": "80"}, {"size": "480"}]}}}}}, {"name": "StatefulPartitionedCall/functional_1/efficientnetb0_1/block5a_expand_bn_1/batchnorm/sub", "op": "Const", "attr": {"dtype": {"type": "DT_FLOAT"}, "value": {"tensor": {"dtype": "DT_FLOAT", "tensorShape": {"dim": [{"size": "1"}, {"size": "1"}, {"size": "1"}, {"size": "480"}]}}}}}, {"name": "StatefulPartitionedCall/functional_1/efficientnetb0_1/block5a_dwconv_1/depthwise/ReadVariableOp", "op": "Const", "attr": {"dtype": {"type": "DT_FLOAT"}, "value": {"tensor": {"dtype": "DT_FLOAT", "tensorShape": {"dim": [{"size": "5"}, {"size": "5"}, {"size": "480"}, {"size": "1"}]}}}}}, {"name": "StatefulPartitionedCall/functional_1/efficientnetb0_1/block5a_bn_1/batchnorm/mul", "op": "Const", "attr": {"dtype": {"type": "DT_FLOAT"}, "value": {"tensor": {"dtype": "DT_FLOAT", "tensorShape": {"dim": [{"size": "1"}, {"size": "1"}, {"size": "1"}, {"size": "480"}]}}}}}, {"name": "StatefulPartitionedCall/functional_1/efficientnetb0_1/block5a_bn_1/batchnorm/sub", "op": "Const", "attr": {"dtype": {"type": "DT_FLOAT"}, "value": {"tensor": {"dtype": "DT_FLOAT", "tensorShape": {"dim": [{"size": "1"}, {"size": "1"}, {"size": "1"}, {"size": "480"}]}}}}}, {"name": "StatefulPartitionedCall/functional_1/efficientnetb0_1/block5a_se_squeeze_1/Mean/reduction_indices", "op": "Const", "attr": {"dtype": {"type": "DT_INT32"}, "value": {"tensor": {"dtype": "DT_INT32", "tensorShape": {"dim": [{"size": "2"}]}}}}}, {"name": "StatefulPartitionedCall/functional_1/efficientnetb0_1/block5a_se_reshape_1/strided_slice/stack", "op": "Const", "attr": {"dtype": {"type": "DT_INT32"}, "value": {"tensor": {"dtype": "DT_INT32", "tensorShape": {"dim": [{"size": "1"}]}}}}}, {"name": "StatefulPartitionedCall/functional_1/efficientnetb0_1/block5a_se_reshape_1/strided_slice/stack_1", "op": "Const", "attr": {"dtype": {"type": "DT_INT32"}, "value": {"tensor": {"dtype": "DT_INT32", "tensorShape": {"dim": [{"size": "1"}]}}}}}, {"name": "StatefulPartitionedCall/functional_1/efficientnetb0_1/block5a_se_reshape_1/strided_slice/stack_2", "op": "Const", "attr": {"dtype": {"type": "DT_INT32"}, "value": {"tensor": {"dtype": "DT_INT32", "tensorShape": {"dim": [{"size": "1"}]}}}}}, {"name": "StatefulPartitionedCall/functional_1/efficientnetb0_1/block5a_se_reshape_1/Reshape/shape/1", "op": "Const", "attr": {"dtype": {"type": "DT_INT32"}, "value": {"tensor": {"dtype": "DT_INT32", "tensorShape": {}}}}}, {"name": "StatefulPartitionedCall/functional_1/efficientnetb0_1/block5a_se_reshape_1/Reshape/shape/2", "op": "Const", "attr": {"dtype": {"type": "DT_INT32"}, "value": {"tensor": {"dtype": "DT_INT32", "tensorShape": {}}}}}, {"name": "StatefulPartitionedCall/functional_1/efficientnetb0_1/block5a_se_reshape_1/Reshape/shape/3", "op": "Const", "attr": {"dtype": {"type": "DT_INT32"}, "value": {"tensor": {"dtype": "DT_INT32", "tensorShape": {}}}}}, {"name": "StatefulPartitionedCall/functional_1/efficientnetb0_1/block5a_se_reduce_1/convolution/ReadVariableOp", "op": "Const", "attr": {"dtype": {"type": "DT_FLOAT"}, "value": {"tensor": {"dtype": "DT_FLOAT", "tensorShape": {"dim": [{"size": "1"}, {"size": "1"}, {"size": "480"}, {"size": "20"}]}}}}}, {"name": "StatefulPartitionedCall/functional_1/efficientnetb0_1/block5a_se_reduce_1/Squeeze", "op": "Const", "attr": {"dtype": {"type": "DT_FLOAT"}, "value": {"tensor": {"dtype": "DT_FLOAT", "tensorShape": {"dim": [{"size": "20"}]}}}}}, {"name": "StatefulPartitionedCall/functional_1/efficientnetb0_1/block5a_se_expand_1/convolution/ReadVariableOp", "op": "Const", "attr": {"dtype": {"type": "DT_FLOAT"}, "value": {"tensor": {"dtype": "DT_FLOAT", "tensorShape": {"dim": [{"size": "1"}, {"size": "1"}, {"size": "20"}, {"size": "480"}]}}}}}, {"name": "StatefulPartitionedCall/functional_1/efficientnetb0_1/block5a_se_expand_1/Squeeze", "op": "Const", "attr": {"dtype": {"type": "DT_FLOAT"}, "value": {"tensor": {"dtype": "DT_FLOAT", "tensorShape": {"dim": [{"size": "480"}]}}}}}, {"name": "StatefulPartitionedCall/functional_1/efficientnetb0_1/block5a_project_conv_1/convolution/merged_input", "op": "Const", "attr": {"dtype": {"type": "DT_FLOAT"}, "value": {"tensor": {"dtype": "DT_FLOAT", "tensorShape": {"dim": [{"size": "1"}, {"size": "1"}, {"size": "480"}, {"size": "112"}]}}}}}, {"name": "StatefulPartitionedCall/functional_1/efficientnetb0_1/block5a_project_bn_1/batchnorm/sub", "op": "Const", "attr": {"dtype": {"type": "DT_FLOAT"}, "value": {"tensor": {"dtype": "DT_FLOAT", "tensorShape": {"dim": [{"size": "1"}, {"size": "1"}, {"size": "1"}, {"size": "112"}]}}}}}, {"name": "StatefulPartitionedCall/functional_1/efficientnetb0_1/block6a_expand_conv_1/convolution/merged_input", "op": "Const", "attr": {"dtype": {"type": "DT_FLOAT"}, "value": {"tensor": {"dtype": "DT_FLOAT", "tensorShape": {"dim": [{"size": "1"}, {"size": "1"}, {"size": "112"}, {"size": "672"}]}}}}}, {"name": "StatefulPartitionedCall/functional_1/efficientnetb0_1/block6a_expand_bn_1/batchnorm/sub", "op": "Const", "attr": {"dtype": {"type": "DT_FLOAT"}, "value": {"tensor": {"dtype": "DT_FLOAT", "tensorShape": {"dim": [{"size": "1"}, {"size": "1"}, {"size": "1"}, {"size": "672"}]}}}}}, {"name": "StatefulPartitionedCall/functional_1/efficientnetb0_1/block6a_dwconv_pad_1/Const", "op": "Const", "attr": {"dtype": {"type": "DT_INT32"}, "value": {"tensor": {"dtype": "DT_INT32", "tensorShape": {"dim": [{"size": "4"}, {"size": "2"}]}}}}}, {"name": "StatefulPartitionedCall/functional_1/efficientnetb0_1/block6a_dwconv_1/depthwise/ReadVariableOp", "op": "Const", "attr": {"dtype": {"type": "DT_FLOAT"}, "value": {"tensor": {"dtype": "DT_FLOAT", "tensorShape": {"dim": [{"size": "5"}, {"size": "5"}, {"size": "672"}, {"size": "1"}]}}}}}, {"name": "StatefulPartitionedCall/functional_1/efficientnetb0_1/block6a_bn_1/batchnorm/mul", "op": "Const", "attr": {"dtype": {"type": "DT_FLOAT"}, "value": {"tensor": {"dtype": "DT_FLOAT", "tensorShape": {"dim": [{"size": "1"}, {"size": "1"}, {"size": "1"}, {"size": "672"}]}}}}}, {"name": "StatefulPartitionedCall/functional_1/efficientnetb0_1/block6a_bn_1/batchnorm/sub", "op": "Const", "attr": {"dtype": {"type": "DT_FLOAT"}, "value": {"tensor": {"dtype": "DT_FLOAT", "tensorShape": {"dim": [{"size": "1"}, {"size": "1"}, {"size": "1"}, {"size": "672"}]}}}}}, {"name": "StatefulPartitionedCall/functional_1/efficientnetb0_1/block6a_se_squeeze_1/Mean/reduction_indices", "op": "Const", "attr": {"dtype": {"type": "DT_INT32"}, "value": {"tensor": {"dtype": "DT_INT32", "tensorShape": {"dim": [{"size": "2"}]}}}}}, {"name": "StatefulPartitionedCall/functional_1/efficientnetb0_1/block6a_se_reshape_1/strided_slice/stack", "op": "Const", "attr": {"dtype": {"type": "DT_INT32"}, "value": {"tensor": {"dtype": "DT_INT32", "tensorShape": {"dim": [{"size": "1"}]}}}}}, {"name": "StatefulPartitionedCall/functional_1/efficientnetb0_1/block6a_se_reshape_1/strided_slice/stack_1", "op": "Const", "attr": {"dtype": {"type": "DT_INT32"}, "value": {"tensor": {"dtype": "DT_INT32", "tensorShape": {"dim": [{"size": "1"}]}}}}}, {"name": "StatefulPartitionedCall/functional_1/efficientnetb0_1/block6a_se_reshape_1/strided_slice/stack_2", "op": "Const", "attr": {"dtype": {"type": "DT_INT32"}, "value": {"tensor": {"dtype": "DT_INT32", "tensorShape": {"dim": [{"size": "1"}]}}}}}, {"name": "StatefulPartitionedCall/functional_1/efficientnetb0_1/block6a_se_reshape_1/Reshape/shape/1", "op": "Const", "attr": {"dtype": {"type": "DT_INT32"}, "value": {"tensor": {"dtype": "DT_INT32", "tensorShape": {}}}}}, {"name": "StatefulPartitionedCall/functional_1/efficientnetb0_1/block6a_se_reshape_1/Reshape/shape/2", "op": "Const", "attr": {"dtype": {"type": "DT_INT32"}, "value": {"tensor": {"dtype": "DT_INT32", "tensorShape": {}}}}}, {"name": "StatefulPartitionedCall/functional_1/efficientnetb0_1/block6a_se_reshape_1/Reshape/shape/3", "op": "Const", "attr": {"dtype": {"type": "DT_INT32"}, "value": {"tensor": {"dtype": "DT_INT32", "tensorShape": {}}}}}, {"name": "StatefulPartitionedCall/functional_1/efficientnetb0_1/block6a_se_reduce_1/convolution/ReadVariableOp", "op": "Const", "attr": {"dtype": {"type": "DT_FLOAT"}, "value": {"tensor": {"dtype": "DT_FLOAT", "tensorShape": {"dim": [{"size": "1"}, {"size": "1"}, {"size": "672"}, {"size": "28"}]}}}}}, {"name": "StatefulPartitionedCall/functional_1/efficientnetb0_1/block6a_se_reduce_1/Squeeze", "op": "Const", "attr": {"dtype": {"type": "DT_FLOAT"}, "value": {"tensor": {"dtype": "DT_FLOAT", "tensorShape": {"dim": [{"size": "28"}]}}}}}, {"name": "StatefulPartitionedCall/functional_1/efficientnetb0_1/block6a_se_expand_1/convolution/ReadVariableOp", "op": "Const", "attr": {"dtype": {"type": "DT_FLOAT"}, "value": {"tensor": {"dtype": "DT_FLOAT", "tensorShape": {"dim": [{"size": "1"}, {"size": "1"}, {"size": "28"}, {"size": "672"}]}}}}}, {"name": "StatefulPartitionedCall/functional_1/efficientnetb0_1/block6a_se_expand_1/Squeeze", "op": "Const", "attr": {"dtype": {"type": "DT_FLOAT"}, "value": {"tensor": {"dtype": "DT_FLOAT", "tensorShape": {"dim": [{"size": "672"}]}}}}}, {"name": "StatefulPartitionedCall/functional_1/efficientnetb0_1/block6a_project_conv_1/convolution/merged_input", "op": "Const", "attr": {"dtype": {"type": "DT_FLOAT"}, "value": {"tensor": {"dtype": "DT_FLOAT", "tensorShape": {"dim": [{"size": "1"}, {"size": "1"}, {"size": "672"}, {"size": "192"}]}}}}}, {"name": "StatefulPartitionedCall/functional_1/efficientnetb0_1/block6a_project_bn_1/batchnorm/sub", "op": "Const", "attr": {"dtype": {"type": "DT_FLOAT"}, "value": {"tensor": {"dtype": "DT_FLOAT", "tensorShape": {"dim": [{"size": "1"}, {"size": "1"}, {"size": "1"}, {"size": "192"}]}}}}}, {"name": "StatefulPartitionedCall/functional_1/efficientnetb0_1/block7a_expand_conv_1/convolution/merged_input", "op": "Const", "attr": {"dtype": {"type": "DT_FLOAT"}, "value": {"tensor": {"dtype": "DT_FLOAT", "tensorShape": {"dim": [{"size": "1"}, {"size": "1"}, {"size": "192"}, {"size": "1152"}]}}}}}, {"name": "StatefulPartitionedCall/functional_1/efficientnetb0_1/block7a_expand_bn_1/batchnorm/sub", "op": "Const", "attr": {"dtype": {"type": "DT_FLOAT"}, "value": {"tensor": {"dtype": "DT_FLOAT", "tensorShape": {"dim": [{"size": "1"}, {"size": "1"}, {"size": "1"}, {"size": "1152"}]}}}}}, {"name": "StatefulPartitionedCall/functional_1/efficientnetb0_1/block7a_dwconv_1/depthwise/ReadVariableOp", "op": "Const", "attr": {"dtype": {"type": "DT_FLOAT"}, "value": {"tensor": {"dtype": "DT_FLOAT", "tensorShape": {"dim": [{"size": "3"}, {"size": "3"}, {"size": "1152"}, {"size": "1"}]}}}}}, {"name": "StatefulPartitionedCall/functional_1/efficientnetb0_1/block7a_bn_1/batchnorm/mul", "op": "Const", "attr": {"dtype": {"type": "DT_FLOAT"}, "value": {"tensor": {"dtype": "DT_FLOAT", "tensorShape": {"dim": [{"size": "1"}, {"size": "1"}, {"size": "1"}, {"size": "1152"}]}}}}}, {"name": "StatefulPartitionedCall/functional_1/efficientnetb0_1/block7a_bn_1/batchnorm/sub", "op": "Const", "attr": {"dtype": {"type": "DT_FLOAT"}, "value": {"tensor": {"dtype": "DT_FLOAT", "tensorShape": {"dim": [{"size": "1"}, {"size": "1"}, {"size": "1"}, {"size": "1152"}]}}}}}, {"name": "StatefulPartitionedCall/functional_1/efficientnetb0_1/block7a_se_squeeze_1/Mean/reduction_indices", "op": "Const", "attr": {"dtype": {"type": "DT_INT32"}, "value": {"tensor": {"dtype": "DT_INT32", "tensorShape": {"dim": [{"size": "2"}]}}}}}, {"name": "StatefulPartitionedCall/functional_1/efficientnetb0_1/block7a_se_reshape_1/strided_slice/stack", "op": "Const", "attr": {"dtype": {"type": "DT_INT32"}, "value": {"tensor": {"dtype": "DT_INT32", "tensorShape": {"dim": [{"size": "1"}]}}}}}, {"name": "StatefulPartitionedCall/functional_1/efficientnetb0_1/block7a_se_reshape_1/strided_slice/stack_1", "op": "Const", "attr": {"dtype": {"type": "DT_INT32"}, "value": {"tensor": {"dtype": "DT_INT32", "tensorShape": {"dim": [{"size": "1"}]}}}}}, {"name": "StatefulPartitionedCall/functional_1/efficientnetb0_1/block7a_se_reshape_1/strided_slice/stack_2", "op": "Const", "attr": {"dtype": {"type": "DT_INT32"}, "value": {"tensor": {"dtype": "DT_INT32", "tensorShape": {"dim": [{"size": "1"}]}}}}}, {"name": "StatefulPartitionedCall/functional_1/efficientnetb0_1/block7a_se_reshape_1/Reshape/shape/1", "op": "Const", "attr": {"dtype": {"type": "DT_INT32"}, "value": {"tensor": {"dtype": "DT_INT32", "tensorShape": {}}}}}, {"name": "StatefulPartitionedCall/functional_1/efficientnetb0_1/block7a_se_reshape_1/Reshape/shape/2", "op": "Const", "attr": {"dtype": {"type": "DT_INT32"}, "value": {"tensor": {"dtype": "DT_INT32", "tensorShape": {}}}}}, {"name": "StatefulPartitionedCall/functional_1/efficientnetb0_1/block7a_se_reshape_1/Reshape/shape/3", "op": "Const", "attr": {"dtype": {"type": "DT_INT32"}, "value": {"tensor": {"dtype": "DT_INT32", "tensorShape": {}}}}}, {"name": "StatefulPartitionedCall/functional_1/efficientnetb0_1/block7a_se_reduce_1/convolution/ReadVariableOp", "op": "Const", "attr": {"dtype": {"type": "DT_FLOAT"}, "value": {"tensor": {"dtype": "DT_FLOAT", "tensorShape": {"dim": [{"size": "1"}, {"size": "1"}, {"size": "1152"}, {"size": "48"}]}}}}}, {"name": "StatefulPartitionedCall/functional_1/efficientnetb0_1/block7a_se_reduce_1/Squeeze", "op": "Const", "attr": {"dtype": {"type": "DT_FLOAT"}, "value": {"tensor": {"dtype": "DT_FLOAT", "tensorShape": {"dim": [{"size": "48"}]}}}}}, {"name": "StatefulPartitionedCall/functional_1/efficientnetb0_1/block7a_se_expand_1/convolution/ReadVariableOp", "op": "Const", "attr": {"dtype": {"type": "DT_FLOAT"}, "value": {"tensor": {"dtype": "DT_FLOAT", "tensorShape": {"dim": [{"size": "1"}, {"size": "1"}, {"size": "48"}, {"size": "1152"}]}}}}}, {"name": "StatefulPartitionedCall/functional_1/efficientnetb0_1/block7a_se_expand_1/Squeeze", "op": "Const", "attr": {"dtype": {"type": "DT_FLOAT"}, "value": {"tensor": {"dtype": "DT_FLOAT", "tensorShape": {"dim": [{"size": "1152"}]}}}}}, {"name": "StatefulPartitionedCall/functional_1/efficientnetb0_1/block7a_project_conv_1/convolution/merged_input", "op": "Const", "attr": {"dtype": {"type": "DT_FLOAT"}, "value": {"tensor": {"dtype": "DT_FLOAT", "tensorShape": {"dim": [{"size": "1"}, {"size": "1"}, {"size": "1152"}, {"size": "320"}]}}}}}, {"name": "StatefulPartitionedCall/functional_1/efficientnetb0_1/block7a_project_bn_1/batchnorm/sub", "op": "Const", "attr": {"dtype": {"type": "DT_FLOAT"}, "value": {"tensor": {"dtype": "DT_FLOAT", "tensorShape": {"dim": [{"size": "1"}, {"size": "1"}, {"size": "1"}, {"size": "320"}]}}}}}, {"name": "StatefulPartitionedCall/functional_1/efficientnetb0_1/top_conv_1/convolution/merged_input", "op": "Const", "attr": {"dtype": {"type": "DT_FLOAT"}, "value": {"tensor": {"dtype": "DT_FLOAT", "tensorShape": {"dim": [{"size": "1"}, {"size": "1"}, {"size": "320"}, {"size": "1280"}]}}}}}, {"name": "StatefulPartitionedCall/functional_1/efficientnetb0_1/top_bn_1/batchnorm/sub", "op": "Const", "attr": {"dtype": {"type": "DT_FLOAT"}, "value": {"tensor": {"dtype": "DT_FLOAT", "tensorShape": {"dim": [{"size": "1"}, {"size": "1"}, {"size": "1"}, {"size": "1280"}]}}}}}, {"name": "StatefulPartitionedCall/functional_1/global_average_pooling2d_1/Mean/reduction_indices", "op": "Const", "attr": {"dtype": {"type": "DT_INT32"}, "value": {"tensor": {"dtype": "DT_INT32", "tensorShape": {"dim": [{"size": "2"}]}}}}}, {"name": "StatefulPartitionedCall/functional_1/dense_1/Cast/ReadVariableOp", "op": "Const", "attr": {"dtype": {"type": "DT_FLOAT"}, "value": {"tensor": {"dtype": "DT_FLOAT", "tensorShape": {"dim": [{"size": "1280"}, {"size": "256"}]}}}}}, {"name": "StatefulPartitionedCall/functional_1/dense_1/BiasAdd/ReadVariableOp", "op": "Const", "attr": {"dtype": {"type": "DT_FLOAT"}, "value": {"tensor": {"dtype": "DT_FLOAT", "tensorShape": {"dim": [{"size": "256"}]}}}}}, {"name": "StatefulPartitionedCall/functional_1/dense_1_2/Cast/ReadVariableOp", "op": "Const", "attr": {"dtype": {"type": "DT_FLOAT"}, "value": {"tensor": {"dtype": "DT_FLOAT", "tensorShape": {"dim": [{"size": "256"}, {"size": "6"}]}}}}}, {"name": "StatefulPartitionedCall/functional_1/dense_1_2/BiasAdd/ReadVariableOp", "op": "Const", "attr": {"dtype": {"type": "DT_FLOAT"}, "value": {"tensor": {"dtype": "DT_FLOAT", "tensorShape": {"dim": [{"size": "6"}]}}}}}, {"name": "input_layer_1", "op": "Placeholder", "attr": {"dtype": {"type": "DT_FLOAT"}, "shape": {"shape": {"dim": [{"size": "-1"}, {"size": "224"}, {"size": "224"}, {"size": "3"}]}}}}, {"name": "StatefulPartitionedCall/functional_1/efficientnetb0_1/rescaling_1/mul", "op": "Mul", "input": ["input_layer_1", "StatefulPartitionedCall/functional_1/efficientnetb0_1/rescaling_1/Cast/x"], "attr": {"T": {"type": "DT_FLOAT"}}}, {"name": "StatefulPartitionedCall/functional_1/efficientnetb0_1/normalization_1/Sub", "op": "Add", "input": ["StatefulPartitionedCall/functional_1/efficientnetb0_1/rescaling_1/mul", "StatefulPartitionedCall/functional_1/efficientnetb0_1/rescaling_1/add"], "attr": {"T": {"type": "DT_FLOAT"}}}, {"name": "StatefulPartitionedCall/functional_1/efficientnetb0_1/rescaling_1_2/mul", "op": "Mul", "input": ["StatefulPartitionedCall/functional_1/efficientnetb0_1/normalization_1/Sub", "StatefulPartitionedCall/functional_1/efficientnetb0_1/normalization_1/truediv"], "attr": {"T": {"type": "DT_FLOAT"}}}, {"name": "StatefulPartitionedCall/functional_1/efficientnetb0_1/rescaling_1_2/add", "op": "AddV2", "input": ["StatefulPartitionedCall/functional_1/efficientnetb0_1/rescaling_1_2/mul", "StatefulPartitionedCall/functional_1/efficientnetb0_1/rescaling_1_2/Cast_1/x"], "attr": {"T": {"type": "DT_FLOAT"}}}, {"name": "StatefulPartitionedCall/functional_1/efficientnetb0_1/stem_conv_pad_1/Pad", "op": "Pad", "input": ["StatefulPartitionedCall/functional_1/efficientnetb0_1/rescaling_1_2/add", "StatefulPartitionedCall/functional_1/efficientnetb0_1/stem_conv_pad_1/Const"], "attr": {"T": {"type": "DT_FLOAT"}, "Tpaddings": {"type": "DT_INT32"}}}, {"name": "StatefulPartitionedCall/functional_1/efficientnetb0_1/stem_bn_1/batchnorm/mul_1", "op": "Conv2D", "input": ["StatefulPartitionedCall/functional_1/efficientnetb0_1/stem_conv_pad_1/Pad", "StatefulPartitionedCall/functional_1/efficientnetb0_1/stem_conv_1/convolution/merged_input"], "device": "/device:CPU:0", "attr": {"explicit_paddings": {"list": {}}, "_input_shapes": {"list": {"shape": [{"dim": [{"size": "-2"}, {"size": "-14"}, {"size": "-15"}, {"size": "-13"}]}, {"dim": [{"size": "3"}, {"size": "3"}, {"size": "3"}, {"size": "32"}]}]}}, "use_cudnn_on_gpu": {"b": true}, "data_format": {"s": "TkhXQw=="}, "padding": {"s": "VkFMSUQ="}, "T": {"type": "DT_FLOAT"}, "strides": {"list": {"i": ["1", "2", "2", "1"]}}, "dilations": {"list": {"i": ["1", "1", "1", "1"]}}}}, {"name": "StatefulPartitionedCall/functional_1/efficientnetb0_1/stem_bn_1/batchnorm/add_1", "op": "AddV2", "input": ["StatefulPartitionedCall/functional_1/efficientnetb0_1/stem_bn_1/batchnorm/mul_1", "StatefulPartitionedCall/functional_1/efficientnetb0_1/stem_bn_1/batchnorm/sub"], "attr": {"T": {"type": "DT_FLOAT"}}}, {"name": "StatefulPartitionedCall/functional_1/efficientnetb0_1/stem_activation_1/Sigmoid", "op": "Sigmoid", "input": ["StatefulPartitionedCall/functional_1/efficientnetb0_1/stem_bn_1/batchnorm/add_1"], "attr": {"T": {"type": "DT_FLOAT"}, "_input_shapes": {"list": {"shape": [{"dim": [{"size": "-2"}, {"size": "-16"}, {"size": "-17"}, {"size": "32"}]}]}}}}, {"name": "StatefulPartitionedCall/functional_1/efficientnetb0_1/stem_activation_1/mul_1", "op": "Mul", "input": ["StatefulPartitionedCall/functional_1/efficientnetb0_1/stem_bn_1/batchnorm/add_1", "StatefulPartitionedCall/functional_1/efficientnetb0_1/stem_activation_1/Sigmoid"], "attr": {"T": {"type": "DT_FLOAT"}}}, {"name": "StatefulPartitionedCall/functional_1/efficientnetb0_1/block1a_dwconv_1/depthwise", "op": "DepthwiseConv2dNative", "input": ["StatefulPartitionedCall/functional_1/efficientnetb0_1/stem_activation_1/mul_1", "StatefulPartitionedCall/functional_1/efficientnetb0_1/block1a_dwconv_1/depthwise/ReadVariableOp"], "attr": {"explicit_paddings": {"list": {}}, "data_format": {"s": "TkhXQw=="}, "padding": {"s": "U0FNRQ=="}, "T": {"type": "DT_FLOAT"}, "strides": {"list": {"i": ["1", "1", "1", "1"]}}, "dilations": {"list": {"i": ["1", "1", "1", "1"]}}, "_input_shapes": {"list": {"shape": [{"dim": [{"size": "-2"}, {"size": "-16"}, {"size": "-17"}, {"size": "32"}]}, {"dim": [{"size": "3"}, {"size": "3"}, {"size": "32"}, {"size": "1"}]}]}}}}, {"name": "StatefulPartitionedCall/functional_1/efficientnetb0_1/block1a_bn_1/batchnorm/mul_1", "op": "Mul", "input": ["StatefulPartitionedCall/functional_1/efficientnetb0_1/block1a_dwconv_1/depthwise", "StatefulPartitionedCall/functional_1/efficientnetb0_1/block1a_bn_1/batchnorm/mul"], "attr": {"T": {"type": "DT_FLOAT"}}}, {"name": "StatefulPartitionedCall/functional_1/efficientnetb0_1/block1a_bn_1/batchnorm/add_1", "op": "AddV2", "input": ["StatefulPartitionedCall/functional_1/efficientnetb0_1/block1a_bn_1/batchnorm/mul_1", "StatefulPartitionedCall/functional_1/efficientnetb0_1/block1a_bn_1/batchnorm/sub"], "attr": {"T": {"type": "DT_FLOAT"}}}, {"name": "StatefulPartitionedCall/functional_1/efficientnetb0_1/block1a_activation_1/Sigmoid", "op": "Sigmoid", "input": ["StatefulPartitionedCall/functional_1/efficientnetb0_1/block1a_bn_1/batchnorm/add_1"], "attr": {"T": {"type": "DT_FLOAT"}, "_input_shapes": {"list": {"shape": [{"dim": [{"size": "-2"}, {"size": "-16"}, {"size": "-17"}, {"size": "32"}]}]}}}}, {"name": "StatefulPartitionedCall/functional_1/efficientnetb0_1/block1a_activation_1/mul_1", "op": "Mul", "input": ["StatefulPartitionedCall/functional_1/efficientnetb0_1/block1a_bn_1/batchnorm/add_1", "StatefulPartitionedCall/functional_1/efficientnetb0_1/block1a_activation_1/Sigmoid"], "attr": {"T": {"type": "DT_FLOAT"}}}, {"name": "StatefulPartitionedCall/functional_1/efficientnetb0_1/block1a_se_squeeze_1/Mean", "op": "Mean", "input": ["StatefulPartitionedCall/functional_1/efficientnetb0_1/block1a_activation_1/mul_1", "StatefulPartitionedCall/functional_1/efficientnetb0_1/block1a_se_squeeze_1/Mean/reduction_indices"], "attr": {"Tidx": {"type": "DT_INT32"}, "T": {"type": "DT_FLOAT"}, "keep_dims": {"b": false}}}, {"name": "StatefulPartitionedCall/functional_1/efficientnetb0_1/block1a_se_reshape_1/Shape", "op": "Shape", "input": ["StatefulPartitionedCall/functional_1/efficientnetb0_1/block1a_se_squeeze_1/Mean"], "attr": {"out_type": {"type": "DT_INT32"}, "T": {"type": "DT_FLOAT"}}, "experimentalType": {"typeId": "TFT_PRODUCT", "args": [{"typeId": "TFT_SHAPE_TENSOR", "args": [{"typeId": "TFT_INT32"}]}]}}, {"name": "StatefulPartitionedCall/functional_1/efficientnetb0_1/block1a_se_reshape_1/strided_slice", "op": "StridedSlice", "input": ["StatefulPartitionedCall/functional_1/efficientnetb0_1/block1a_se_reshape_1/Shape", "StatefulPartitionedCall/functional_1/efficientnetb0_1/block1a_se_reshape_1/strided_slice/stack", "StatefulPartitionedCall/functional_1/efficientnetb0_1/block1a_se_reshape_1/strided_slice/stack_1", "StatefulPartitionedCall/functional_1/efficientnetb0_1/block1a_se_reshape_1/strided_slice/stack_2"], "attr": {"ellipsis_mask": {"i": "0"}, "end_mask": {"i": "0"}, "T": {"type": "DT_INT32"}, "shrink_axis_mask": {"i": "1"}, "Index": {"type": "DT_INT32"}, "new_axis_mask": {"i": "0"}, "begin_mask": {"i": "0"}}}, {"name": "StatefulPartitionedCall/functional_1/efficientnetb0_1/block1a_se_reshape_1/Reshape/shape", "op": "Pack", "input": ["StatefulPartitionedCall/functional_1/efficientnetb0_1/block1a_se_reshape_1/strided_slice", "StatefulPartitionedCall/functional_1/efficientnetb0_1/block1a_se_reshape_1/Reshape/shape/1", "StatefulPartitionedCall/functional_1/efficientnetb0_1/block1a_se_reshape_1/Reshape/shape/2", "StatefulPartitionedCall/functional_1/efficientnetb0_1/block1a_se_reshape_1/Reshape/shape/3"], "attr": {"T": {"type": "DT_INT32"}, "axis": {"i": "0"}, "N": {"i": "4"}}}, {"name": "StatefulPartitionedCall/functional_1/efficientnetb0_1/block1a_se_reshape_1/Reshape", "op": "Reshape", "input": ["StatefulPartitionedCall/functional_1/efficientnetb0_1/block1a_se_squeeze_1/Mean", "StatefulPartitionedCall/functional_1/efficientnetb0_1/block1a_se_reshape_1/Reshape/shape"], "attr": {"Tshape": {"type": "DT_INT32"}, "T": {"type": "DT_FLOAT"}}}, {"name": "StatefulPartitionedCall/functional_1/efficientnetb0_1/block1a_se_reduce_1/BiasAdd", "op": "_FusedConv2D", "input": ["StatefulPartitionedCall/functional_1/efficientnetb0_1/block1a_se_reshape_1/Reshape", "StatefulPartitionedCall/functional_1/efficientnetb0_1/block1a_se_reduce_1/convolution/ReadVariableOp", "StatefulPartitionedCall/functional_1/efficientnetb0_1/block1a_se_reduce_1/Squeeze"], "device": "/device:CPU:0", "attr": {"explicit_paddings": {"list": {}}, "epsilon": {"f": 0.0}, "filter_format": {"s": "SFdJTw=="}, "leakyrelu_alpha": {"f": 0.2}, "_input_shapes": {"list": {"shape": [{"dim": [{"size": "-2"}, {"size": "1"}, {"size": "1"}, {"size": "32"}]}, {"dim": [{"size": "1"}, {"size": "1"}, {"size": "32"}, {"size": "8"}]}]}}, "num_host_args": {"i": "0"}, "data_format": {"s": "TkhXQw=="}, "num_args": {"i": "1"}, "use_cudnn_on_gpu": {"b": true}, "TArgs": {"list": {"type": ["DT_FLOAT"]}}, "padding": {"s": "U0FNRQ=="}, "fused_ops": {"list": {"s": ["Qmlhc0FkZA=="]}}, "T": {"type": "DT_FLOAT"}, "strides": {"list": {"i": ["1", "1", "1", "1"]}}, "dilations": {"list": {"i": ["1", "1", "1", "1"]}}}}, {"name": "StatefulPartitionedCall/functional_1/efficientnetb0_1/block1a_se_reduce_1/Sigmoid", "op": "Sigmoid", "input": ["StatefulPartitionedCall/functional_1/efficientnetb0_1/block1a_se_reduce_1/BiasAdd"], "attr": {"T": {"type": "DT_FLOAT"}, "_input_shapes": {"list": {"shape": [{"dim": [{"size": "-2"}, {"size": "1"}, {"size": "1"}, {"size": "8"}]}]}}}}, {"name": "StatefulPartitionedCall/functional_1/efficientnetb0_1/block1a_se_reduce_1/mul_1", "op": "Mul", "input": ["StatefulPartitionedCall/functional_1/efficientnetb0_1/block1a_se_reduce_1/BiasAdd", "StatefulPartitionedCall/functional_1/efficientnetb0_1/block1a_se_reduce_1/Sigmoid"], "attr": {"T": {"type": "DT_FLOAT"}}}, {"name": "StatefulPartitionedCall/functional_1/efficientnetb0_1/block1a_se_expand_1/BiasAdd", "op": "_FusedConv2D", "input": ["StatefulPartitionedCall/functional_1/efficientnetb0_1/block1a_se_reduce_1/mul_1", "StatefulPartitionedCall/functional_1/efficientnetb0_1/block1a_se_expand_1/convolution/ReadVariableOp", "StatefulPartitionedCall/functional_1/efficientnetb0_1/block1a_se_expand_1/Squeeze"], "device": "/device:CPU:0", "attr": {"explicit_paddings": {"list": {}}, "epsilon": {"f": 0.0}, "filter_format": {"s": "SFdJTw=="}, "leakyrelu_alpha": {"f": 0.2}, "use_cudnn_on_gpu": {"b": true}, "num_host_args": {"i": "0"}, "data_format": {"s": "TkhXQw=="}, "num_args": {"i": "1"}, "_input_shapes": {"list": {"shape": [{"dim": [{"size": "-2"}, {"size": "1"}, {"size": "1"}, {"size": "8"}]}, {"dim": [{"size": "1"}, {"size": "1"}, {"size": "8"}, {"size": "32"}]}]}}, "TArgs": {"list": {"type": ["DT_FLOAT"]}}, "padding": {"s": "U0FNRQ=="}, "fused_ops": {"list": {"s": ["Qmlhc0FkZA=="]}}, "T": {"type": "DT_FLOAT"}, "strides": {"list": {"i": ["1", "1", "1", "1"]}}, "dilations": {"list": {"i": ["1", "1", "1", "1"]}}}}, {"name": "StatefulPartitionedCall/functional_1/efficientnetb0_1/block1a_se_expand_1/Sigmoid", "op": "Sigmoid", "input": ["StatefulPartitionedCall/functional_1/efficientnetb0_1/block1a_se_expand_1/BiasAdd"], "attr": {"T": {"type": "DT_FLOAT"}, "_input_shapes": {"list": {"shape": [{"dim": [{"size": "-2"}, {"size": "1"}, {"size": "1"}, {"size": "32"}]}]}}}}, {"name": "StatefulPartitionedCall/functional_1/efficientnetb0_1/block1a_se_excite_1/Mul", "op": "Mul", "input": ["StatefulPartitionedCall/functional_1/efficientnetb0_1/block1a_activation_1/mul_1", "StatefulPartitionedCall/functional_1/efficientnetb0_1/block1a_se_expand_1/Sigmoid"], "attr": {"T": {"type": "DT_FLOAT"}}}, {"name": "StatefulPartitionedCall/functional_1/efficientnetb0_1/block1a_project_bn_1/batchnorm/mul_1", "op": "Conv2D", "input": ["StatefulPartitionedCall/functional_1/efficientnetb0_1/block1a_se_excite_1/Mul", "StatefulPartitionedCall/functional_1/efficientnetb0_1/block1a_project_conv_1/convolution/merged_input"], "device": "/device:CPU:0", "attr": {"explicit_paddings": {"list": {}}, "_input_shapes": {"list": {"shape": [{"dim": [{"size": "-2"}, {"size": "-16"}, {"size": "-17"}, {"size": "32"}]}, {"dim": [{"size": "1"}, {"size": "1"}, {"size": "32"}, {"size": "16"}]}]}}, "use_cudnn_on_gpu": {"b": true}, "data_format": {"s": "TkhXQw=="}, "padding": {"s": "U0FNRQ=="}, "T": {"type": "DT_FLOAT"}, "strides": {"list": {"i": ["1", "1", "1", "1"]}}, "dilations": {"list": {"i": ["1", "1", "1", "1"]}}}}, {"name": "StatefulPartitionedCall/functional_1/efficientnetb0_1/block1a_project_bn_1/batchnorm/add_1", "op": "AddV2", "input": ["StatefulPartitionedCall/functional_1/efficientnetb0_1/block1a_project_bn_1/batchnorm/mul_1", "StatefulPartitionedCall/functional_1/efficientnetb0_1/block1a_project_bn_1/batchnorm/sub"], "attr": {"T": {"type": "DT_FLOAT"}}}, {"name": "StatefulPartitionedCall/functional_1/efficientnetb0_1/block2a_expand_bn_1/batchnorm/mul_1", "op": "Conv2D", "input": ["StatefulPartitionedCall/functional_1/efficientnetb0_1/block1a_project_bn_1/batchnorm/add_1", "StatefulPartitionedCall/functional_1/efficientnetb0_1/block2a_expand_conv_1/convolution/merged_input"], "device": "/device:CPU:0", "attr": {"explicit_paddings": {"list": {}}, "use_cudnn_on_gpu": {"b": true}, "_input_shapes": {"list": {"shape": [{"dim": [{"size": "-2"}, {"size": "-16"}, {"size": "-17"}, {"size": "16"}]}, {"dim": [{"size": "1"}, {"size": "1"}, {"size": "16"}, {"size": "96"}]}]}}, "data_format": {"s": "TkhXQw=="}, "padding": {"s": "U0FNRQ=="}, "strides": {"list": {"i": ["1", "1", "1", "1"]}}, "T": {"type": "DT_FLOAT"}, "dilations": {"list": {"i": ["1", "1", "1", "1"]}}}}, {"name": "StatefulPartitionedCall/functional_1/efficientnetb0_1/block2a_expand_bn_1/batchnorm/add_1", "op": "AddV2", "input": ["StatefulPartitionedCall/functional_1/efficientnetb0_1/block2a_expand_bn_1/batchnorm/mul_1", "StatefulPartitionedCall/functional_1/efficientnetb0_1/block2a_expand_bn_1/batchnorm/sub"], "attr": {"T": {"type": "DT_FLOAT"}}}, {"name": "StatefulPartitionedCall/functional_1/efficientnetb0_1/block2a_expand_activation_1/Sigmoid", "op": "Sigmoid", "input": ["StatefulPartitionedCall/functional_1/efficientnetb0_1/block2a_expand_bn_1/batchnorm/add_1"], "attr": {"T": {"type": "DT_FLOAT"}, "_input_shapes": {"list": {"shape": [{"dim": [{"size": "-2"}, {"size": "-16"}, {"size": "-17"}, {"size": "96"}]}]}}}}, {"name": "StatefulPartitionedCall/functional_1/efficientnetb0_1/block2a_expand_activation_1/mul_1", "op": "Mul", "input": ["StatefulPartitionedCall/functional_1/efficientnetb0_1/block2a_expand_bn_1/batchnorm/add_1", "StatefulPartitionedCall/functional_1/efficientnetb0_1/block2a_expand_activation_1/Sigmoid"], "attr": {"T": {"type": "DT_FLOAT"}}}, {"name": "StatefulPartitionedCall/functional_1/efficientnetb0_1/block2a_dwconv_pad_1/Pad", "op": "Pad", "input": ["StatefulPartitionedCall/functional_1/efficientnetb0_1/block2a_expand_activation_1/mul_1", "StatefulPartitionedCall/functional_1/efficientnetb0_1/block2a_dwconv_pad_1/Const"], "attr": {"T": {"type": "DT_FLOAT"}, "Tpaddings": {"type": "DT_INT32"}}}, {"name": "StatefulPartitionedCall/functional_1/efficientnetb0_1/block2a_dwconv_1/depthwise", "op": "DepthwiseConv2dNative", "input": ["StatefulPartitionedCall/functional_1/efficientnetb0_1/block2a_dwconv_pad_1/Pad", "StatefulPartitionedCall/functional_1/efficientnetb0_1/block2a_dwconv_1/depthwise/ReadVariableOp"], "attr": {"explicit_paddings": {"list": {}}, "data_format": {"s": "TkhXQw=="}, "padding": {"s": "VkFMSUQ="}, "T": {"type": "DT_FLOAT"}, "strides": {"list": {"i": ["1", "2", "2", "1"]}}, "dilations": {"list": {"i": ["1", "1", "1", "1"]}}, "_input_shapes": {"list": {"shape": [{"dim": [{"size": "-2"}, {"size": "-18"}, {"size": "-19"}, {"size": "96"}]}, {"dim": [{"size": "3"}, {"size": "3"}, {"size": "96"}, {"size": "1"}]}]}}}}, {"name": "StatefulPartitionedCall/functional_1/efficientnetb0_1/block2a_bn_1/batchnorm/mul_1", "op": "Mul", "input": ["StatefulPartitionedCall/functional_1/efficientnetb0_1/block2a_dwconv_1/depthwise", "StatefulPartitionedCall/functional_1/efficientnetb0_1/block2a_bn_1/batchnorm/mul"], "attr": {"T": {"type": "DT_FLOAT"}}}, {"name": "StatefulPartitionedCall/functional_1/efficientnetb0_1/block2a_bn_1/batchnorm/add_1", "op": "AddV2", "input": ["StatefulPartitionedCall/functional_1/efficientnetb0_1/block2a_bn_1/batchnorm/mul_1", "StatefulPartitionedCall/functional_1/efficientnetb0_1/block2a_bn_1/batchnorm/sub"], "attr": {"T": {"type": "DT_FLOAT"}}}, {"name": "StatefulPartitionedCall/functional_1/efficientnetb0_1/block2a_activation_1/Sigmoid", "op": "Sigmoid", "input": ["StatefulPartitionedCall/functional_1/efficientnetb0_1/block2a_bn_1/batchnorm/add_1"], "attr": {"T": {"type": "DT_FLOAT"}, "_input_shapes": {"list": {"shape": [{"dim": [{"size": "-2"}, {"size": "-3"}, {"size": "-4"}, {"size": "96"}]}]}}}}, {"name": "StatefulPartitionedCall/functional_1/efficientnetb0_1/block2a_activation_1/mul_1", "op": "Mul", "input": ["StatefulPartitionedCall/functional_1/efficientnetb0_1/block2a_bn_1/batchnorm/add_1", "StatefulPartitionedCall/functional_1/efficientnetb0_1/block2a_activation_1/Sigmoid"], "attr": {"T": {"type": "DT_FLOAT"}}}, {"name": "StatefulPartitionedCall/functional_1/efficientnetb0_1/block2a_se_squeeze_1/Mean", "op": "Mean", "input": ["StatefulPartitionedCall/functional_1/efficientnetb0_1/block2a_activation_1/mul_1", "StatefulPartitionedCall/functional_1/efficientnetb0_1/block2a_se_squeeze_1/Mean/reduction_indices"], "attr": {"Tidx": {"type": "DT_INT32"}, "T": {"type": "DT_FLOAT"}, "keep_dims": {"b": false}}}, {"name": "StatefulPartitionedCall/functional_1/efficientnetb0_1/block2a_se_reshape_1/Shape", "op": "Shape", "input": ["StatefulPartitionedCall/functional_1/efficientnetb0_1/block2a_se_squeeze_1/Mean"], "attr": {"out_type": {"type": "DT_INT32"}, "T": {"type": "DT_FLOAT"}}, "experimentalType": {"typeId": "TFT_PRODUCT", "args": [{"typeId": "TFT_SHAPE_TENSOR", "args": [{"typeId": "TFT_INT32"}]}]}}, {"name": "StatefulPartitionedCall/functional_1/efficientnetb0_1/block2a_se_reshape_1/strided_slice", "op": "StridedSlice", "input": ["StatefulPartitionedCall/functional_1/efficientnetb0_1/block2a_se_reshape_1/Shape", "StatefulPartitionedCall/functional_1/efficientnetb0_1/block2a_se_reshape_1/strided_slice/stack", "StatefulPartitionedCall/functional_1/efficientnetb0_1/block2a_se_reshape_1/strided_slice/stack_1", "StatefulPartitionedCall/functional_1/efficientnetb0_1/block2a_se_reshape_1/strided_slice/stack_2"], "attr": {"shrink_axis_mask": {"i": "1"}, "end_mask": {"i": "0"}, "T": {"type": "DT_INT32"}, "ellipsis_mask": {"i": "0"}, "Index": {"type": "DT_INT32"}, "new_axis_mask": {"i": "0"}, "begin_mask": {"i": "0"}}}, {"name": "StatefulPartitionedCall/functional_1/efficientnetb0_1/block2a_se_reshape_1/Reshape/shape", "op": "Pack", "input": ["StatefulPartitionedCall/functional_1/efficientnetb0_1/block2a_se_reshape_1/strided_slice", "StatefulPartitionedCall/functional_1/efficientnetb0_1/block2a_se_reshape_1/Reshape/shape/1", "StatefulPartitionedCall/functional_1/efficientnetb0_1/block2a_se_reshape_1/Reshape/shape/2", "StatefulPartitionedCall/functional_1/efficientnetb0_1/block2a_se_reshape_1/Reshape/shape/3"], "attr": {"T": {"type": "DT_INT32"}, "axis": {"i": "0"}, "N": {"i": "4"}}}, {"name": "StatefulPartitionedCall/functional_1/efficientnetb0_1/block2a_se_reshape_1/Reshape", "op": "Reshape", "input": ["StatefulPartitionedCall/functional_1/efficientnetb0_1/block2a_se_squeeze_1/Mean", "StatefulPartitionedCall/functional_1/efficientnetb0_1/block2a_se_reshape_1/Reshape/shape"], "attr": {"Tshape": {"type": "DT_INT32"}, "T": {"type": "DT_FLOAT"}}}, {"name": "StatefulPartitionedCall/functional_1/efficientnetb0_1/block2a_se_reduce_1/BiasAdd", "op": "_FusedConv2D", "input": ["StatefulPartitionedCall/functional_1/efficientnetb0_1/block2a_se_reshape_1/Reshape", "StatefulPartitionedCall/functional_1/efficientnetb0_1/block2a_se_reduce_1/convolution/ReadVariableOp", "StatefulPartitionedCall/functional_1/efficientnetb0_1/block2a_se_reduce_1/Squeeze"], "device": "/device:CPU:0", "attr": {"explicit_paddings": {"list": {}}, "epsilon": {"f": 0.0}, "filter_format": {"s": "SFdJTw=="}, "leakyrelu_alpha": {"f": 0.2}, "_input_shapes": {"list": {"shape": [{"dim": [{"size": "-2"}, {"size": "1"}, {"size": "1"}, {"size": "96"}]}, {"dim": [{"size": "1"}, {"size": "1"}, {"size": "96"}, {"size": "4"}]}]}}, "num_host_args": {"i": "0"}, "data_format": {"s": "TkhXQw=="}, "num_args": {"i": "1"}, "use_cudnn_on_gpu": {"b": true}, "TArgs": {"list": {"type": ["DT_FLOAT"]}}, "padding": {"s": "U0FNRQ=="}, "fused_ops": {"list": {"s": ["Qmlhc0FkZA=="]}}, "strides": {"list": {"i": ["1", "1", "1", "1"]}}, "T": {"type": "DT_FLOAT"}, "dilations": {"list": {"i": ["1", "1", "1", "1"]}}}}, {"name": "StatefulPartitionedCall/functional_1/efficientnetb0_1/block2a_se_reduce_1/Sigmoid", "op": "Sigmoid", "input": ["StatefulPartitionedCall/functional_1/efficientnetb0_1/block2a_se_reduce_1/BiasAdd"], "attr": {"T": {"type": "DT_FLOAT"}, "_input_shapes": {"list": {"shape": [{"dim": [{"size": "-2"}, {"size": "1"}, {"size": "1"}, {"size": "4"}]}]}}}}, {"name": "StatefulPartitionedCall/functional_1/efficientnetb0_1/block2a_se_reduce_1/mul_1", "op": "Mul", "input": ["StatefulPartitionedCall/functional_1/efficientnetb0_1/block2a_se_reduce_1/BiasAdd", "StatefulPartitionedCall/functional_1/efficientnetb0_1/block2a_se_reduce_1/Sigmoid"], "attr": {"T": {"type": "DT_FLOAT"}}}, {"name": "StatefulPartitionedCall/functional_1/efficientnetb0_1/block2a_se_expand_1/BiasAdd", "op": "_FusedConv2D", "input": ["StatefulPartitionedCall/functional_1/efficientnetb0_1/block2a_se_reduce_1/mul_1", "StatefulPartitionedCall/functional_1/efficientnetb0_1/block2a_se_expand_1/convolution/ReadVariableOp", "StatefulPartitionedCall/functional_1/efficientnetb0_1/block2a_se_expand_1/Squeeze"], "device": "/device:CPU:0", "attr": {"explicit_paddings": {"list": {}}, "epsilon": {"f": 0.0}, "filter_format": {"s": "SFdJTw=="}, "leakyrelu_alpha": {"f": 0.2}, "_input_shapes": {"list": {"shape": [{"dim": [{"size": "-2"}, {"size": "1"}, {"size": "1"}, {"size": "4"}]}, {"dim": [{"size": "1"}, {"size": "1"}, {"size": "4"}, {"size": "96"}]}]}}, "num_host_args": {"i": "0"}, "data_format": {"s": "TkhXQw=="}, "num_args": {"i": "1"}, "use_cudnn_on_gpu": {"b": true}, "TArgs": {"list": {"type": ["DT_FLOAT"]}}, "padding": {"s": "U0FNRQ=="}, "fused_ops": {"list": {"s": ["Qmlhc0FkZA=="]}}, "strides": {"list": {"i": ["1", "1", "1", "1"]}}, "T": {"type": "DT_FLOAT"}, "dilations": {"list": {"i": ["1", "1", "1", "1"]}}}}, {"name": "StatefulPartitionedCall/functional_1/efficientnetb0_1/block2a_se_expand_1/Sigmoid", "op": "Sigmoid", "input": ["StatefulPartitionedCall/functional_1/efficientnetb0_1/block2a_se_expand_1/BiasAdd"], "attr": {"T": {"type": "DT_FLOAT"}, "_input_shapes": {"list": {"shape": [{"dim": [{"size": "-2"}, {"size": "1"}, {"size": "1"}, {"size": "96"}]}]}}}}, {"name": "StatefulPartitionedCall/functional_1/efficientnetb0_1/block2a_se_excite_1/Mul", "op": "Mul", "input": ["StatefulPartitionedCall/functional_1/efficientnetb0_1/block2a_activation_1/mul_1", "StatefulPartitionedCall/functional_1/efficientnetb0_1/block2a_se_expand_1/Sigmoid"], "attr": {"T": {"type": "DT_FLOAT"}}}, {"name": "StatefulPartitionedCall/functional_1/efficientnetb0_1/block2a_project_bn_1/batchnorm/mul_1", "op": "Conv2D", "input": ["StatefulPartitionedCall/functional_1/efficientnetb0_1/block2a_se_excite_1/Mul", "StatefulPartitionedCall/functional_1/efficientnetb0_1/block2a_project_conv_1/convolution/merged_input"], "device": "/device:CPU:0", "attr": {"explicit_paddings": {"list": {}}, "_input_shapes": {"list": {"shape": [{"dim": [{"size": "-2"}, {"size": "-3"}, {"size": "-4"}, {"size": "96"}]}, {"dim": [{"size": "1"}, {"size": "1"}, {"size": "96"}, {"size": "24"}]}]}}, "use_cudnn_on_gpu": {"b": true}, "padding": {"s": "U0FNRQ=="}, "data_format": {"s": "TkhXQw=="}, "strides": {"list": {"i": ["1", "1", "1", "1"]}}, "T": {"type": "DT_FLOAT"}, "dilations": {"list": {"i": ["1", "1", "1", "1"]}}}}, {"name": "StatefulPartitionedCall/functional_1/efficientnetb0_1/block2a_project_bn_1/batchnorm/add_1", "op": "AddV2", "input": ["StatefulPartitionedCall/functional_1/efficientnetb0_1/block2a_project_bn_1/batchnorm/mul_1", "StatefulPartitionedCall/functional_1/efficientnetb0_1/block2a_project_bn_1/batchnorm/sub"], "attr": {"T": {"type": "DT_FLOAT"}}}, {"name": "StatefulPartitionedCall/functional_1/efficientnetb0_1/block2b_expand_bn_1/batchnorm/mul_1", "op": "Conv2D", "input": ["StatefulPartitionedCall/functional_1/efficientnetb0_1/block2a_project_bn_1/batchnorm/add_1", "StatefulPartitionedCall/functional_1/efficientnetb0_1/block2b_expand_conv_1/convolution/merged_input"], "device": "/device:CPU:0", "attr": {"explicit_paddings": {"list": {}}, "use_cudnn_on_gpu": {"b": true}, "_input_shapes": {"list": {"shape": [{"dim": [{"size": "-2"}, {"size": "-3"}, {"size": "-4"}, {"size": "24"}]}, {"dim": [{"size": "1"}, {"size": "1"}, {"size": "24"}, {"size": "144"}]}]}}, "data_format": {"s": "TkhXQw=="}, "padding": {"s": "U0FNRQ=="}, "T": {"type": "DT_FLOAT"}, "strides": {"list": {"i": ["1", "1", "1", "1"]}}, "dilations": {"list": {"i": ["1", "1", "1", "1"]}}}}, {"name": "StatefulPartitionedCall/functional_1/efficientnetb0_1/block2b_expand_bn_1/batchnorm/add_1", "op": "AddV2", "input": ["StatefulPartitionedCall/functional_1/efficientnetb0_1/block2b_expand_bn_1/batchnorm/mul_1", "StatefulPartitionedCall/functional_1/efficientnetb0_1/block2b_expand_bn_1/batchnorm/sub"], "attr": {"T": {"type": "DT_FLOAT"}}}, {"name": "StatefulPartitionedCall/functional_1/efficientnetb0_1/block2b_expand_activation_1/Sigmoid", "op": "Sigmoid", "input": ["StatefulPartitionedCall/functional_1/efficientnetb0_1/block2b_expand_bn_1/batchnorm/add_1"], "attr": {"T": {"type": "DT_FLOAT"}, "_input_shapes": {"list": {"shape": [{"dim": [{"size": "-2"}, {"size": "-3"}, {"size": "-4"}, {"size": "144"}]}]}}}}, {"name": "StatefulPartitionedCall/functional_1/efficientnetb0_1/block2b_expand_activation_1/mul_1", "op": "Mul", "input": ["StatefulPartitionedCall/functional_1/efficientnetb0_1/block2b_expand_bn_1/batchnorm/add_1", "StatefulPartitionedCall/functional_1/efficientnetb0_1/block2b_expand_activation_1/Sigmoid"], "attr": {"T": {"type": "DT_FLOAT"}}}, {"name": "StatefulPartitionedCall/functional_1/efficientnetb0_1/block2b_dwconv_1/depthwise", "op": "DepthwiseConv2dNative", "input": ["StatefulPartitionedCall/functional_1/efficientnetb0_1/block2b_expand_activation_1/mul_1", "StatefulPartitionedCall/functional_1/efficientnetb0_1/block2b_dwconv_1/depthwise/ReadVariableOp"], "attr": {"explicit_paddings": {"list": {}}, "padding": {"s": "U0FNRQ=="}, "data_format": {"s": "TkhXQw=="}, "strides": {"list": {"i": ["1", "1", "1", "1"]}}, "T": {"type": "DT_FLOAT"}, "dilations": {"list": {"i": ["1", "1", "1", "1"]}}, "_input_shapes": {"list": {"shape": [{"dim": [{"size": "-2"}, {"size": "-3"}, {"size": "-4"}, {"size": "144"}]}, {"dim": [{"size": "3"}, {"size": "3"}, {"size": "144"}, {"size": "1"}]}]}}}}, {"name": "StatefulPartitionedCall/functional_1/efficientnetb0_1/block2b_bn_1/batchnorm/mul_1", "op": "Mul", "input": ["StatefulPartitionedCall/functional_1/efficientnetb0_1/block2b_dwconv_1/depthwise", "StatefulPartitionedCall/functional_1/efficientnetb0_1/block2b_bn_1/batchnorm/mul"], "attr": {"T": {"type": "DT_FLOAT"}}}, {"name": "StatefulPartitionedCall/functional_1/efficientnetb0_1/block2b_bn_1/batchnorm/add_1", "op": "AddV2", "input": ["StatefulPartitionedCall/functional_1/efficientnetb0_1/block2b_bn_1/batchnorm/mul_1", "StatefulPartitionedCall/functional_1/efficientnetb0_1/block2b_bn_1/batchnorm/sub"], "attr": {"T": {"type": "DT_FLOAT"}}}, {"name": "StatefulPartitionedCall/functional_1/efficientnetb0_1/block2b_activation_1/Sigmoid", "op": "Sigmoid", "input": ["StatefulPartitionedCall/functional_1/efficientnetb0_1/block2b_bn_1/batchnorm/add_1"], "attr": {"T": {"type": "DT_FLOAT"}, "_input_shapes": {"list": {"shape": [{"dim": [{"size": "-2"}, {"size": "-3"}, {"size": "-4"}, {"size": "144"}]}]}}}}, {"name": "StatefulPartitionedCall/functional_1/efficientnetb0_1/block2b_activation_1/mul_1", "op": "Mul", "input": ["StatefulPartitionedCall/functional_1/efficientnetb0_1/block2b_bn_1/batchnorm/add_1", "StatefulPartitionedCall/functional_1/efficientnetb0_1/block2b_activation_1/Sigmoid"], "attr": {"T": {"type": "DT_FLOAT"}}}, {"name": "StatefulPartitionedCall/functional_1/efficientnetb0_1/block2b_se_squeeze_1/Mean", "op": "Mean", "input": ["StatefulPartitionedCall/functional_1/efficientnetb0_1/block2b_activation_1/mul_1", "StatefulPartitionedCall/functional_1/efficientnetb0_1/block2b_se_squeeze_1/Mean/reduction_indices"], "attr": {"Tidx": {"type": "DT_INT32"}, "T": {"type": "DT_FLOAT"}, "keep_dims": {"b": false}}}, {"name": "StatefulPartitionedCall/functional_1/efficientnetb0_1/block2b_se_reshape_1/Shape", "op": "Shape", "input": ["StatefulPartitionedCall/functional_1/efficientnetb0_1/block2b_se_squeeze_1/Mean"], "attr": {"out_type": {"type": "DT_INT32"}, "T": {"type": "DT_FLOAT"}}, "experimentalType": {"typeId": "TFT_PRODUCT", "args": [{"typeId": "TFT_SHAPE_TENSOR", "args": [{"typeId": "TFT_INT32"}]}]}}, {"name": "StatefulPartitionedCall/functional_1/efficientnetb0_1/block2b_se_reshape_1/strided_slice", "op": "StridedSlice", "input": ["StatefulPartitionedCall/functional_1/efficientnetb0_1/block2b_se_reshape_1/Shape", "StatefulPartitionedCall/functional_1/efficientnetb0_1/block2b_se_reshape_1/strided_slice/stack", "StatefulPartitionedCall/functional_1/efficientnetb0_1/block2b_se_reshape_1/strided_slice/stack_1", "StatefulPartitionedCall/functional_1/efficientnetb0_1/block2b_se_reshape_1/strided_slice/stack_2"], "attr": {"ellipsis_mask": {"i": "0"}, "end_mask": {"i": "0"}, "T": {"type": "DT_INT32"}, "shrink_axis_mask": {"i": "1"}, "new_axis_mask": {"i": "0"}, "Index": {"type": "DT_INT32"}, "begin_mask": {"i": "0"}}}, {"name": "StatefulPartitionedCall/functional_1/efficientnetb0_1/block2b_se_reshape_1/Reshape/shape", "op": "Pack", "input": ["StatefulPartitionedCall/functional_1/efficientnetb0_1/block2b_se_reshape_1/strided_slice", "StatefulPartitionedCall/functional_1/efficientnetb0_1/block2b_se_reshape_1/Reshape/shape/1", "StatefulPartitionedCall/functional_1/efficientnetb0_1/block2b_se_reshape_1/Reshape/shape/2", "StatefulPartitionedCall/functional_1/efficientnetb0_1/block2b_se_reshape_1/Reshape/shape/3"], "attr": {"T": {"type": "DT_INT32"}, "axis": {"i": "0"}, "N": {"i": "4"}}}, {"name": "StatefulPartitionedCall/functional_1/efficientnetb0_1/block2b_se_reshape_1/Reshape", "op": "Reshape", "input": ["StatefulPartitionedCall/functional_1/efficientnetb0_1/block2b_se_squeeze_1/Mean", "StatefulPartitionedCall/functional_1/efficientnetb0_1/block2b_se_reshape_1/Reshape/shape"], "attr": {"Tshape": {"type": "DT_INT32"}, "T": {"type": "DT_FLOAT"}}}, {"name": "StatefulPartitionedCall/functional_1/efficientnetb0_1/block2b_se_reduce_1/BiasAdd", "op": "_FusedConv2D", "input": ["StatefulPartitionedCall/functional_1/efficientnetb0_1/block2b_se_reshape_1/Reshape", "StatefulPartitionedCall/functional_1/efficientnetb0_1/block2b_se_reduce_1/convolution/ReadVariableOp", "StatefulPartitionedCall/functional_1/efficientnetb0_1/block2b_se_reduce_1/Squeeze"], "device": "/device:CPU:0", "attr": {"explicit_paddings": {"list": {}}, "epsilon": {"f": 0.0}, "filter_format": {"s": "SFdJTw=="}, "leakyrelu_alpha": {"f": 0.2}, "_input_shapes": {"list": {"shape": [{"dim": [{"size": "-2"}, {"size": "1"}, {"size": "1"}, {"size": "144"}]}, {"dim": [{"size": "1"}, {"size": "1"}, {"size": "144"}, {"size": "6"}]}]}}, "num_host_args": {"i": "0"}, "data_format": {"s": "TkhXQw=="}, "num_args": {"i": "1"}, "use_cudnn_on_gpu": {"b": true}, "TArgs": {"list": {"type": ["DT_FLOAT"]}}, "padding": {"s": "U0FNRQ=="}, "fused_ops": {"list": {"s": ["Qmlhc0FkZA=="]}}, "strides": {"list": {"i": ["1", "1", "1", "1"]}}, "T": {"type": "DT_FLOAT"}, "dilations": {"list": {"i": ["1", "1", "1", "1"]}}}}, {"name": "StatefulPartitionedCall/functional_1/efficientnetb0_1/block2b_se_reduce_1/Sigmoid", "op": "Sigmoid", "input": ["StatefulPartitionedCall/functional_1/efficientnetb0_1/block2b_se_reduce_1/BiasAdd"], "attr": {"T": {"type": "DT_FLOAT"}, "_input_shapes": {"list": {"shape": [{"dim": [{"size": "-2"}, {"size": "1"}, {"size": "1"}, {"size": "6"}]}]}}}}, {"name": "StatefulPartitionedCall/functional_1/efficientnetb0_1/block2b_se_reduce_1/mul_1", "op": "Mul", "input": ["StatefulPartitionedCall/functional_1/efficientnetb0_1/block2b_se_reduce_1/BiasAdd", "StatefulPartitionedCall/functional_1/efficientnetb0_1/block2b_se_reduce_1/Sigmoid"], "attr": {"T": {"type": "DT_FLOAT"}}}, {"name": "StatefulPartitionedCall/functional_1/efficientnetb0_1/block2b_se_expand_1/BiasAdd", "op": "_FusedConv2D", "input": ["StatefulPartitionedCall/functional_1/efficientnetb0_1/block2b_se_reduce_1/mul_1", "StatefulPartitionedCall/functional_1/efficientnetb0_1/block2b_se_expand_1/convolution/ReadVariableOp", "StatefulPartitionedCall/functional_1/efficientnetb0_1/block2b_se_expand_1/Squeeze"], "device": "/device:CPU:0", "attr": {"explicit_paddings": {"list": {}}, "epsilon": {"f": 0.0}, "filter_format": {"s": "SFdJTw=="}, "leakyrelu_alpha": {"f": 0.2}, "use_cudnn_on_gpu": {"b": true}, "num_host_args": {"i": "0"}, "data_format": {"s": "TkhXQw=="}, "num_args": {"i": "1"}, "_input_shapes": {"list": {"shape": [{"dim": [{"size": "-2"}, {"size": "1"}, {"size": "1"}, {"size": "6"}]}, {"dim": [{"size": "1"}, {"size": "1"}, {"size": "6"}, {"size": "144"}]}]}}, "TArgs": {"list": {"type": ["DT_FLOAT"]}}, "padding": {"s": "U0FNRQ=="}, "fused_ops": {"list": {"s": ["Qmlhc0FkZA=="]}}, "T": {"type": "DT_FLOAT"}, "strides": {"list": {"i": ["1", "1", "1", "1"]}}, "dilations": {"list": {"i": ["1", "1", "1", "1"]}}}}, {"name": "StatefulPartitionedCall/functional_1/efficientnetb0_1/block2b_se_expand_1/Sigmoid", "op": "Sigmoid", "input": ["StatefulPartitionedCall/functional_1/efficientnetb0_1/block2b_se_expand_1/BiasAdd"], "attr": {"T": {"type": "DT_FLOAT"}, "_input_shapes": {"list": {"shape": [{"dim": [{"size": "-2"}, {"size": "1"}, {"size": "1"}, {"size": "144"}]}]}}}}, {"name": "StatefulPartitionedCall/functional_1/efficientnetb0_1/block2b_se_excite_1/Mul", "op": "Mul", "input": ["StatefulPartitionedCall/functional_1/efficientnetb0_1/block2b_activation_1/mul_1", "StatefulPartitionedCall/functional_1/efficientnetb0_1/block2b_se_expand_1/Sigmoid"], "attr": {"T": {"type": "DT_FLOAT"}}}, {"name": "StatefulPartitionedCall/functional_1/efficientnetb0_1/block2b_project_bn_1/batchnorm/mul_1", "op": "Conv2D", "input": ["StatefulPartitionedCall/functional_1/efficientnetb0_1/block2b_se_excite_1/Mul", "StatefulPartitionedCall/functional_1/efficientnetb0_1/block2b_project_conv_1/convolution/merged_input"], "device": "/device:CPU:0", "attr": {"explicit_paddings": {"list": {}}, "use_cudnn_on_gpu": {"b": true}, "_input_shapes": {"list": {"shape": [{"dim": [{"size": "-2"}, {"size": "-3"}, {"size": "-4"}, {"size": "144"}]}, {"dim": [{"size": "1"}, {"size": "1"}, {"size": "144"}, {"size": "24"}]}]}}, "padding": {"s": "U0FNRQ=="}, "data_format": {"s": "TkhXQw=="}, "strides": {"list": {"i": ["1", "1", "1", "1"]}}, "T": {"type": "DT_FLOAT"}, "dilations": {"list": {"i": ["1", "1", "1", "1"]}}}}, {"name": "StatefulPartitionedCall/functional_1/efficientnetb0_1/block2b_add_1/ArithmeticOptimizer/AddOpsRewrite_Leaf_1_Add", "op": "AddN", "input": ["StatefulPartitionedCall/functional_1/efficientnetb0_1/block2b_project_bn_1/batchnorm/mul_1", "StatefulPartitionedCall/functional_1/efficientnetb0_1/block2a_project_bn_1/batchnorm/add_1"], "attr": {"_grappler_ArithmeticOptimizer_AddOpsRewriteStage": {"b": true}, "T": {"type": "DT_FLOAT"}, "N": {"i": "2"}}}, {"name": "StatefulPartitionedCall/functional_1/efficientnetb0_1/block2b_add_1/ArithmeticOptimizer/AddOpsRewrite_Add", "op": "AddV2", "input": ["StatefulPartitionedCall/functional_1/efficientnetb0_1/block2b_project_bn_1/batchnorm/sub", "StatefulPartitionedCall/functional_1/efficientnetb0_1/block2b_add_1/ArithmeticOptimizer/AddOpsRewrite_Leaf_1_Add"], "attr": {"_grappler_ArithmeticOptimizer_AddOpsRewriteStage": {"b": true}, "T": {"type": "DT_FLOAT"}}}, {"name": "StatefulPartitionedCall/functional_1/efficientnetb0_1/block3a_expand_bn_1/batchnorm/mul_1", "op": "Conv2D", "input": ["StatefulPartitionedCall/functional_1/efficientnetb0_1/block2b_add_1/ArithmeticOptimizer/AddOpsRewrite_Add", "StatefulPartitionedCall/functional_1/efficientnetb0_1/block3a_expand_conv_1/convolution/merged_input"], "device": "/device:CPU:0", "attr": {"explicit_paddings": {"list": {}}, "use_cudnn_on_gpu": {"b": true}, "_input_shapes": {"list": {"shape": [{"dim": [{"size": "-2"}, {"size": "-3"}, {"size": "-4"}, {"size": "24"}]}, {"dim": [{"size": "1"}, {"size": "1"}, {"size": "24"}, {"size": "144"}]}]}}, "padding": {"s": "U0FNRQ=="}, "data_format": {"s": "TkhXQw=="}, "T": {"type": "DT_FLOAT"}, "strides": {"list": {"i": ["1", "1", "1", "1"]}}, "dilations": {"list": {"i": ["1", "1", "1", "1"]}}}}, {"name": "StatefulPartitionedCall/functional_1/efficientnetb0_1/block3a_expand_bn_1/batchnorm/add_1", "op": "AddV2", "input": ["StatefulPartitionedCall/functional_1/efficientnetb0_1/block3a_expand_bn_1/batchnorm/mul_1", "StatefulPartitionedCall/functional_1/efficientnetb0_1/block3a_expand_bn_1/batchnorm/sub"], "attr": {"T": {"type": "DT_FLOAT"}}}, {"name": "StatefulPartitionedCall/functional_1/efficientnetb0_1/block3a_expand_activation_1/Sigmoid", "op": "Sigmoid", "input": ["StatefulPartitionedCall/functional_1/efficientnetb0_1/block3a_expand_bn_1/batchnorm/add_1"], "attr": {"T": {"type": "DT_FLOAT"}, "_input_shapes": {"list": {"shape": [{"dim": [{"size": "-2"}, {"size": "-3"}, {"size": "-4"}, {"size": "144"}]}]}}}}, {"name": "StatefulPartitionedCall/functional_1/efficientnetb0_1/block3a_expand_activation_1/mul_1", "op": "Mul", "input": ["StatefulPartitionedCall/functional_1/efficientnetb0_1/block3a_expand_bn_1/batchnorm/add_1", "StatefulPartitionedCall/functional_1/efficientnetb0_1/block3a_expand_activation_1/Sigmoid"], "attr": {"T": {"type": "DT_FLOAT"}}}, {"name": "StatefulPartitionedCall/functional_1/efficientnetb0_1/block3a_dwconv_pad_1/Pad", "op": "Pad", "input": ["StatefulPartitionedCall/functional_1/efficientnetb0_1/block3a_expand_activation_1/mul_1", "StatefulPartitionedCall/functional_1/efficientnetb0_1/block3a_dwconv_pad_1/Const"], "attr": {"T": {"type": "DT_FLOAT"}, "Tpaddings": {"type": "DT_INT32"}}}, {"name": "StatefulPartitionedCall/functional_1/efficientnetb0_1/block3a_dwconv_1/depthwise", "op": "DepthwiseConv2dNative", "input": ["StatefulPartitionedCall/functional_1/efficientnetb0_1/block3a_dwconv_pad_1/Pad", "StatefulPartitionedCall/functional_1/efficientnetb0_1/block3a_dwconv_1/depthwise/ReadVariableOp"], "attr": {"explicit_paddings": {"list": {}}, "data_format": {"s": "TkhXQw=="}, "padding": {"s": "VkFMSUQ="}, "T": {"type": "DT_FLOAT"}, "strides": {"list": {"i": ["1", "2", "2", "1"]}}, "dilations": {"list": {"i": ["1", "1", "1", "1"]}}, "_input_shapes": {"list": {"shape": [{"dim": [{"size": "-2"}, {"size": "-20"}, {"size": "-21"}, {"size": "144"}]}, {"dim": [{"size": "5"}, {"size": "5"}, {"size": "144"}, {"size": "1"}]}]}}}}, {"name": "StatefulPartitionedCall/functional_1/efficientnetb0_1/block3a_bn_1/batchnorm/mul_1", "op": "Mul", "input": ["StatefulPartitionedCall/functional_1/efficientnetb0_1/block3a_dwconv_1/depthwise", "StatefulPartitionedCall/functional_1/efficientnetb0_1/block3a_bn_1/batchnorm/mul"], "attr": {"T": {"type": "DT_FLOAT"}}}, {"name": "StatefulPartitionedCall/functional_1/efficientnetb0_1/block3a_bn_1/batchnorm/add_1", "op": "AddV2", "input": ["StatefulPartitionedCall/functional_1/efficientnetb0_1/block3a_bn_1/batchnorm/mul_1", "StatefulPartitionedCall/functional_1/efficientnetb0_1/block3a_bn_1/batchnorm/sub"], "attr": {"T": {"type": "DT_FLOAT"}}}, {"name": "StatefulPartitionedCall/functional_1/efficientnetb0_1/block3a_activation_1/Sigmoid", "op": "Sigmoid", "input": ["StatefulPartitionedCall/functional_1/efficientnetb0_1/block3a_bn_1/batchnorm/add_1"], "attr": {"T": {"type": "DT_FLOAT"}, "_input_shapes": {"list": {"shape": [{"dim": [{"size": "-2"}, {"size": "-5"}, {"size": "-6"}, {"size": "144"}]}]}}}}, {"name": "StatefulPartitionedCall/functional_1/efficientnetb0_1/block3a_activation_1/mul_1", "op": "Mul", "input": ["StatefulPartitionedCall/functional_1/efficientnetb0_1/block3a_bn_1/batchnorm/add_1", "StatefulPartitionedCall/functional_1/efficientnetb0_1/block3a_activation_1/Sigmoid"], "attr": {"T": {"type": "DT_FLOAT"}}}, {"name": "StatefulPartitionedCall/functional_1/efficientnetb0_1/block3a_se_squeeze_1/Mean", "op": "Mean", "input": ["StatefulPartitionedCall/functional_1/efficientnetb0_1/block3a_activation_1/mul_1", "StatefulPartitionedCall/functional_1/efficientnetb0_1/block3a_se_squeeze_1/Mean/reduction_indices"], "attr": {"Tidx": {"type": "DT_INT32"}, "T": {"type": "DT_FLOAT"}, "keep_dims": {"b": false}}}, {"name": "StatefulPartitionedCall/functional_1/efficientnetb0_1/block3a_se_reshape_1/Shape", "op": "Shape", "input": ["StatefulPartitionedCall/functional_1/efficientnetb0_1/block3a_se_squeeze_1/Mean"], "attr": {"out_type": {"type": "DT_INT32"}, "T": {"type": "DT_FLOAT"}}, "experimentalType": {"typeId": "TFT_PRODUCT", "args": [{"typeId": "TFT_SHAPE_TENSOR", "args": [{"typeId": "TFT_INT32"}]}]}}, {"name": "StatefulPartitionedCall/functional_1/efficientnetb0_1/block3a_se_reshape_1/strided_slice", "op": "StridedSlice", "input": ["StatefulPartitionedCall/functional_1/efficientnetb0_1/block3a_se_reshape_1/Shape", "StatefulPartitionedCall/functional_1/efficientnetb0_1/block3a_se_reshape_1/strided_slice/stack", "StatefulPartitionedCall/functional_1/efficientnetb0_1/block3a_se_reshape_1/strided_slice/stack_1", "StatefulPartitionedCall/functional_1/efficientnetb0_1/block3a_se_reshape_1/strided_slice/stack_2"], "attr": {"ellipsis_mask": {"i": "0"}, "end_mask": {"i": "0"}, "T": {"type": "DT_INT32"}, "shrink_axis_mask": {"i": "1"}, "new_axis_mask": {"i": "0"}, "Index": {"type": "DT_INT32"}, "begin_mask": {"i": "0"}}}, {"name": "StatefulPartitionedCall/functional_1/efficientnetb0_1/block3a_se_reshape_1/Reshape/shape", "op": "Pack", "input": ["StatefulPartitionedCall/functional_1/efficientnetb0_1/block3a_se_reshape_1/strided_slice", "StatefulPartitionedCall/functional_1/efficientnetb0_1/block3a_se_reshape_1/Reshape/shape/1", "StatefulPartitionedCall/functional_1/efficientnetb0_1/block3a_se_reshape_1/Reshape/shape/2", "StatefulPartitionedCall/functional_1/efficientnetb0_1/block3a_se_reshape_1/Reshape/shape/3"], "attr": {"T": {"type": "DT_INT32"}, "axis": {"i": "0"}, "N": {"i": "4"}}}, {"name": "StatefulPartitionedCall/functional_1/efficientnetb0_1/block3a_se_reshape_1/Reshape", "op": "Reshape", "input": ["StatefulPartitionedCall/functional_1/efficientnetb0_1/block3a_se_squeeze_1/Mean", "StatefulPartitionedCall/functional_1/efficientnetb0_1/block3a_se_reshape_1/Reshape/shape"], "attr": {"Tshape": {"type": "DT_INT32"}, "T": {"type": "DT_FLOAT"}}}, {"name": "StatefulPartitionedCall/functional_1/efficientnetb0_1/block3a_se_reduce_1/BiasAdd", "op": "_FusedConv2D", "input": ["StatefulPartitionedCall/functional_1/efficientnetb0_1/block3a_se_reshape_1/Reshape", "StatefulPartitionedCall/functional_1/efficientnetb0_1/block3a_se_reduce_1/convolution/ReadVariableOp", "StatefulPartitionedCall/functional_1/efficientnetb0_1/block3a_se_reduce_1/Squeeze"], "device": "/device:CPU:0", "attr": {"explicit_paddings": {"list": {}}, "epsilon": {"f": 0.0}, "filter_format": {"s": "SFdJTw=="}, "leakyrelu_alpha": {"f": 0.2}, "use_cudnn_on_gpu": {"b": true}, "num_host_args": {"i": "0"}, "data_format": {"s": "TkhXQw=="}, "num_args": {"i": "1"}, "_input_shapes": {"list": {"shape": [{"dim": [{"size": "-2"}, {"size": "1"}, {"size": "1"}, {"size": "144"}]}, {"dim": [{"size": "1"}, {"size": "1"}, {"size": "144"}, {"size": "6"}]}]}}, "TArgs": {"list": {"type": ["DT_FLOAT"]}}, "padding": {"s": "U0FNRQ=="}, "fused_ops": {"list": {"s": ["Qmlhc0FkZA=="]}}, "strides": {"list": {"i": ["1", "1", "1", "1"]}}, "T": {"type": "DT_FLOAT"}, "dilations": {"list": {"i": ["1", "1", "1", "1"]}}}}, {"name": "StatefulPartitionedCall/functional_1/efficientnetb0_1/block3a_se_reduce_1/Sigmoid", "op": "Sigmoid", "input": ["StatefulPartitionedCall/functional_1/efficientnetb0_1/block3a_se_reduce_1/BiasAdd"], "attr": {"T": {"type": "DT_FLOAT"}, "_input_shapes": {"list": {"shape": [{"dim": [{"size": "-2"}, {"size": "1"}, {"size": "1"}, {"size": "6"}]}]}}}}, {"name": "StatefulPartitionedCall/functional_1/efficientnetb0_1/block3a_se_reduce_1/mul_1", "op": "Mul", "input": ["StatefulPartitionedCall/functional_1/efficientnetb0_1/block3a_se_reduce_1/BiasAdd", "StatefulPartitionedCall/functional_1/efficientnetb0_1/block3a_se_reduce_1/Sigmoid"], "attr": {"T": {"type": "DT_FLOAT"}}}, {"name": "StatefulPartitionedCall/functional_1/efficientnetb0_1/block3a_se_expand_1/BiasAdd", "op": "_FusedConv2D", "input": ["StatefulPartitionedCall/functional_1/efficientnetb0_1/block3a_se_reduce_1/mul_1", "StatefulPartitionedCall/functional_1/efficientnetb0_1/block3a_se_expand_1/convolution/ReadVariableOp", "StatefulPartitionedCall/functional_1/efficientnetb0_1/block3a_se_expand_1/Squeeze"], "device": "/device:CPU:0", "attr": {"explicit_paddings": {"list": {}}, "epsilon": {"f": 0.0}, "filter_format": {"s": "SFdJTw=="}, "leakyrelu_alpha": {"f": 0.2}, "use_cudnn_on_gpu": {"b": true}, "num_host_args": {"i": "0"}, "data_format": {"s": "TkhXQw=="}, "num_args": {"i": "1"}, "_input_shapes": {"list": {"shape": [{"dim": [{"size": "-2"}, {"size": "1"}, {"size": "1"}, {"size": "6"}]}, {"dim": [{"size": "1"}, {"size": "1"}, {"size": "6"}, {"size": "144"}]}]}}, "TArgs": {"list": {"type": ["DT_FLOAT"]}}, "padding": {"s": "U0FNRQ=="}, "fused_ops": {"list": {"s": ["Qmlhc0FkZA=="]}}, "strides": {"list": {"i": ["1", "1", "1", "1"]}}, "T": {"type": "DT_FLOAT"}, "dilations": {"list": {"i": ["1", "1", "1", "1"]}}}}, {"name": "StatefulPartitionedCall/functional_1/efficientnetb0_1/block3a_se_expand_1/Sigmoid", "op": "Sigmoid", "input": ["StatefulPartitionedCall/functional_1/efficientnetb0_1/block3a_se_expand_1/BiasAdd"], "attr": {"T": {"type": "DT_FLOAT"}, "_input_shapes": {"list": {"shape": [{"dim": [{"size": "-2"}, {"size": "1"}, {"size": "1"}, {"size": "144"}]}]}}}}, {"name": "StatefulPartitionedCall/functional_1/efficientnetb0_1/block3a_se_excite_1/Mul", "op": "Mul", "input": ["StatefulPartitionedCall/functional_1/efficientnetb0_1/block3a_activation_1/mul_1", "StatefulPartitionedCall/functional_1/efficientnetb0_1/block3a_se_expand_1/Sigmoid"], "attr": {"T": {"type": "DT_FLOAT"}}}, {"name": "StatefulPartitionedCall/functional_1/efficientnetb0_1/block3a_project_bn_1/batchnorm/mul_1", "op": "Conv2D", "input": ["StatefulPartitionedCall/functional_1/efficientnetb0_1/block3a_se_excite_1/Mul", "StatefulPartitionedCall/functional_1/efficientnetb0_1/block3a_project_conv_1/convolution/merged_input"], "device": "/device:CPU:0", "attr": {"explicit_paddings": {"list": {}}, "_input_shapes": {"list": {"shape": [{"dim": [{"size": "-2"}, {"size": "-5"}, {"size": "-6"}, {"size": "144"}]}, {"dim": [{"size": "1"}, {"size": "1"}, {"size": "144"}, {"size": "40"}]}]}}, "use_cudnn_on_gpu": {"b": true}, "padding": {"s": "U0FNRQ=="}, "data_format": {"s": "TkhXQw=="}, "strides": {"list": {"i": ["1", "1", "1", "1"]}}, "T": {"type": "DT_FLOAT"}, "dilations": {"list": {"i": ["1", "1", "1", "1"]}}}}, {"name": "StatefulPartitionedCall/functional_1/efficientnetb0_1/block3a_project_bn_1/batchnorm/add_1", "op": "AddV2", "input": ["StatefulPartitionedCall/functional_1/efficientnetb0_1/block3a_project_bn_1/batchnorm/mul_1", "StatefulPartitionedCall/functional_1/efficientnetb0_1/block3a_project_bn_1/batchnorm/sub"], "attr": {"T": {"type": "DT_FLOAT"}}}, {"name": "StatefulPartitionedCall/functional_1/efficientnetb0_1/block3b_expand_bn_1/batchnorm/mul_1", "op": "Conv2D", "input": ["StatefulPartitionedCall/functional_1/efficientnetb0_1/block3a_project_bn_1/batchnorm/add_1", "StatefulPartitionedCall/functional_1/efficientnetb0_1/block3b_expand_conv_1/convolution/merged_input"], "device": "/device:CPU:0", "attr": {"explicit_paddings": {"list": {}}, "use_cudnn_on_gpu": {"b": true}, "_input_shapes": {"list": {"shape": [{"dim": [{"size": "-2"}, {"size": "-5"}, {"size": "-6"}, {"size": "40"}]}, {"dim": [{"size": "1"}, {"size": "1"}, {"size": "40"}, {"size": "240"}]}]}}, "data_format": {"s": "TkhXQw=="}, "padding": {"s": "U0FNRQ=="}, "T": {"type": "DT_FLOAT"}, "strides": {"list": {"i": ["1", "1", "1", "1"]}}, "dilations": {"list": {"i": ["1", "1", "1", "1"]}}}}, {"name": "StatefulPartitionedCall/functional_1/efficientnetb0_1/block3b_expand_bn_1/batchnorm/add_1", "op": "AddV2", "input": ["StatefulPartitionedCall/functional_1/efficientnetb0_1/block3b_expand_bn_1/batchnorm/mul_1", "StatefulPartitionedCall/functional_1/efficientnetb0_1/block3b_expand_bn_1/batchnorm/sub"], "attr": {"T": {"type": "DT_FLOAT"}}}, {"name": "StatefulPartitionedCall/functional_1/efficientnetb0_1/block3b_expand_activation_1/Sigmoid", "op": "Sigmoid", "input": ["StatefulPartitionedCall/functional_1/efficientnetb0_1/block3b_expand_bn_1/batchnorm/add_1"], "attr": {"T": {"type": "DT_FLOAT"}, "_input_shapes": {"list": {"shape": [{"dim": [{"size": "-2"}, {"size": "-5"}, {"size": "-6"}, {"size": "240"}]}]}}}}, {"name": "StatefulPartitionedCall/functional_1/efficientnetb0_1/block3b_expand_activation_1/mul_1", "op": "Mul", "input": ["StatefulPartitionedCall/functional_1/efficientnetb0_1/block3b_expand_bn_1/batchnorm/add_1", "StatefulPartitionedCall/functional_1/efficientnetb0_1/block3b_expand_activation_1/Sigmoid"], "attr": {"T": {"type": "DT_FLOAT"}}}, {"name": "StatefulPartitionedCall/functional_1/efficientnetb0_1/block3b_dwconv_1/depthwise", "op": "DepthwiseConv2dNative", "input": ["StatefulPartitionedCall/functional_1/efficientnetb0_1/block3b_expand_activation_1/mul_1", "StatefulPartitionedCall/functional_1/efficientnetb0_1/block3b_dwconv_1/depthwise/ReadVariableOp"], "attr": {"explicit_paddings": {"list": {}}, "padding": {"s": "U0FNRQ=="}, "data_format": {"s": "TkhXQw=="}, "strides": {"list": {"i": ["1", "1", "1", "1"]}}, "T": {"type": "DT_FLOAT"}, "dilations": {"list": {"i": ["1", "1", "1", "1"]}}, "_input_shapes": {"list": {"shape": [{"dim": [{"size": "-2"}, {"size": "-5"}, {"size": "-6"}, {"size": "240"}]}, {"dim": [{"size": "5"}, {"size": "5"}, {"size": "240"}, {"size": "1"}]}]}}}}, {"name": "StatefulPartitionedCall/functional_1/efficientnetb0_1/block3b_bn_1/batchnorm/mul_1", "op": "Mul", "input": ["StatefulPartitionedCall/functional_1/efficientnetb0_1/block3b_dwconv_1/depthwise", "StatefulPartitionedCall/functional_1/efficientnetb0_1/block3b_bn_1/batchnorm/mul"], "attr": {"T": {"type": "DT_FLOAT"}}}, {"name": "StatefulPartitionedCall/functional_1/efficientnetb0_1/block3b_bn_1/batchnorm/add_1", "op": "AddV2", "input": ["StatefulPartitionedCall/functional_1/efficientnetb0_1/block3b_bn_1/batchnorm/mul_1", "StatefulPartitionedCall/functional_1/efficientnetb0_1/block3b_bn_1/batchnorm/sub"], "attr": {"T": {"type": "DT_FLOAT"}}}, {"name": "StatefulPartitionedCall/functional_1/efficientnetb0_1/block3b_activation_1/Sigmoid", "op": "Sigmoid", "input": ["StatefulPartitionedCall/functional_1/efficientnetb0_1/block3b_bn_1/batchnorm/add_1"], "attr": {"T": {"type": "DT_FLOAT"}, "_input_shapes": {"list": {"shape": [{"dim": [{"size": "-2"}, {"size": "-5"}, {"size": "-6"}, {"size": "240"}]}]}}}}, {"name": "StatefulPartitionedCall/functional_1/efficientnetb0_1/block3b_activation_1/mul_1", "op": "Mul", "input": ["StatefulPartitionedCall/functional_1/efficientnetb0_1/block3b_bn_1/batchnorm/add_1", "StatefulPartitionedCall/functional_1/efficientnetb0_1/block3b_activation_1/Sigmoid"], "attr": {"T": {"type": "DT_FLOAT"}}}, {"name": "StatefulPartitionedCall/functional_1/efficientnetb0_1/block3b_se_squeeze_1/Mean", "op": "Mean", "input": ["StatefulPartitionedCall/functional_1/efficientnetb0_1/block3b_activation_1/mul_1", "StatefulPartitionedCall/functional_1/efficientnetb0_1/block3b_se_squeeze_1/Mean/reduction_indices"], "attr": {"Tidx": {"type": "DT_INT32"}, "T": {"type": "DT_FLOAT"}, "keep_dims": {"b": false}}}, {"name": "StatefulPartitionedCall/functional_1/efficientnetb0_1/block3b_se_reshape_1/Shape", "op": "Shape", "input": ["StatefulPartitionedCall/functional_1/efficientnetb0_1/block3b_se_squeeze_1/Mean"], "attr": {"out_type": {"type": "DT_INT32"}, "T": {"type": "DT_FLOAT"}}, "experimentalType": {"typeId": "TFT_PRODUCT", "args": [{"typeId": "TFT_SHAPE_TENSOR", "args": [{"typeId": "TFT_INT32"}]}]}}, {"name": "StatefulPartitionedCall/functional_1/efficientnetb0_1/block3b_se_reshape_1/strided_slice", "op": "StridedSlice", "input": ["StatefulPartitionedCall/functional_1/efficientnetb0_1/block3b_se_reshape_1/Shape", "StatefulPartitionedCall/functional_1/efficientnetb0_1/block3b_se_reshape_1/strided_slice/stack", "StatefulPartitionedCall/functional_1/efficientnetb0_1/block3b_se_reshape_1/strided_slice/stack_1", "StatefulPartitionedCall/functional_1/efficientnetb0_1/block3b_se_reshape_1/strided_slice/stack_2"], "attr": {"shrink_axis_mask": {"i": "1"}, "end_mask": {"i": "0"}, "T": {"type": "DT_INT32"}, "ellipsis_mask": {"i": "0"}, "new_axis_mask": {"i": "0"}, "Index": {"type": "DT_INT32"}, "begin_mask": {"i": "0"}}}, {"name": "StatefulPartitionedCall/functional_1/efficientnetb0_1/block3b_se_reshape_1/Reshape/shape", "op": "Pack", "input": ["StatefulPartitionedCall/functional_1/efficientnetb0_1/block3b_se_reshape_1/strided_slice", "StatefulPartitionedCall/functional_1/efficientnetb0_1/block3b_se_reshape_1/Reshape/shape/1", "StatefulPartitionedCall/functional_1/efficientnetb0_1/block3b_se_reshape_1/Reshape/shape/2", "StatefulPartitionedCall/functional_1/efficientnetb0_1/block3b_se_reshape_1/Reshape/shape/3"], "attr": {"T": {"type": "DT_INT32"}, "axis": {"i": "0"}, "N": {"i": "4"}}}, {"name": "StatefulPartitionedCall/functional_1/efficientnetb0_1/block3b_se_reshape_1/Reshape", "op": "Reshape", "input": ["StatefulPartitionedCall/functional_1/efficientnetb0_1/block3b_se_squeeze_1/Mean", "StatefulPartitionedCall/functional_1/efficientnetb0_1/block3b_se_reshape_1/Reshape/shape"], "attr": {"Tshape": {"type": "DT_INT32"}, "T": {"type": "DT_FLOAT"}}}, {"name": "StatefulPartitionedCall/functional_1/efficientnetb0_1/block3b_se_reduce_1/BiasAdd", "op": "_FusedConv2D", "input": ["StatefulPartitionedCall/functional_1/efficientnetb0_1/block3b_se_reshape_1/Reshape", "StatefulPartitionedCall/functional_1/efficientnetb0_1/block3b_se_reduce_1/convolution/ReadVariableOp", "StatefulPartitionedCall/functional_1/efficientnetb0_1/block3b_se_reduce_1/Squeeze"], "device": "/device:CPU:0", "attr": {"explicit_paddings": {"list": {}}, "epsilon": {"f": 0.0}, "filter_format": {"s": "SFdJTw=="}, "leakyrelu_alpha": {"f": 0.2}, "use_cudnn_on_gpu": {"b": true}, "num_host_args": {"i": "0"}, "data_format": {"s": "TkhXQw=="}, "num_args": {"i": "1"}, "_input_shapes": {"list": {"shape": [{"dim": [{"size": "-2"}, {"size": "1"}, {"size": "1"}, {"size": "240"}]}, {"dim": [{"size": "1"}, {"size": "1"}, {"size": "240"}, {"size": "10"}]}]}}, "TArgs": {"list": {"type": ["DT_FLOAT"]}}, "padding": {"s": "U0FNRQ=="}, "fused_ops": {"list": {"s": ["Qmlhc0FkZA=="]}}, "strides": {"list": {"i": ["1", "1", "1", "1"]}}, "T": {"type": "DT_FLOAT"}, "dilations": {"list": {"i": ["1", "1", "1", "1"]}}}}, {"name": "StatefulPartitionedCall/functional_1/efficientnetb0_1/block3b_se_reduce_1/Sigmoid", "op": "Sigmoid", "input": ["StatefulPartitionedCall/functional_1/efficientnetb0_1/block3b_se_reduce_1/BiasAdd"], "attr": {"T": {"type": "DT_FLOAT"}, "_input_shapes": {"list": {"shape": [{"dim": [{"size": "-2"}, {"size": "1"}, {"size": "1"}, {"size": "10"}]}]}}}}, {"name": "StatefulPartitionedCall/functional_1/efficientnetb0_1/block3b_se_reduce_1/mul_1", "op": "Mul", "input": ["StatefulPartitionedCall/functional_1/efficientnetb0_1/block3b_se_reduce_1/BiasAdd", "StatefulPartitionedCall/functional_1/efficientnetb0_1/block3b_se_reduce_1/Sigmoid"], "attr": {"T": {"type": "DT_FLOAT"}}}, {"name": "StatefulPartitionedCall/functional_1/efficientnetb0_1/block3b_se_expand_1/BiasAdd", "op": "_FusedConv2D", "input": ["StatefulPartitionedCall/functional_1/efficientnetb0_1/block3b_se_reduce_1/mul_1", "StatefulPartitionedCall/functional_1/efficientnetb0_1/block3b_se_expand_1/convolution/ReadVariableOp", "StatefulPartitionedCall/functional_1/efficientnetb0_1/block3b_se_expand_1/Squeeze"], "device": "/device:CPU:0", "attr": {"explicit_paddings": {"list": {}}, "epsilon": {"f": 0.0}, "filter_format": {"s": "SFdJTw=="}, "leakyrelu_alpha": {"f": 0.2}, "_input_shapes": {"list": {"shape": [{"dim": [{"size": "-2"}, {"size": "1"}, {"size": "1"}, {"size": "10"}]}, {"dim": [{"size": "1"}, {"size": "1"}, {"size": "10"}, {"size": "240"}]}]}}, "num_host_args": {"i": "0"}, "data_format": {"s": "TkhXQw=="}, "num_args": {"i": "1"}, "use_cudnn_on_gpu": {"b": true}, "TArgs": {"list": {"type": ["DT_FLOAT"]}}, "padding": {"s": "U0FNRQ=="}, "fused_ops": {"list": {"s": ["Qmlhc0FkZA=="]}}, "T": {"type": "DT_FLOAT"}, "strides": {"list": {"i": ["1", "1", "1", "1"]}}, "dilations": {"list": {"i": ["1", "1", "1", "1"]}}}}, {"name": "StatefulPartitionedCall/functional_1/efficientnetb0_1/block3b_se_expand_1/Sigmoid", "op": "Sigmoid", "input": ["StatefulPartitionedCall/functional_1/efficientnetb0_1/block3b_se_expand_1/BiasAdd"], "attr": {"T": {"type": "DT_FLOAT"}, "_input_shapes": {"list": {"shape": [{"dim": [{"size": "-2"}, {"size": "1"}, {"size": "1"}, {"size": "240"}]}]}}}}, {"name": "StatefulPartitionedCall/functional_1/efficientnetb0_1/block3b_se_excite_1/Mul", "op": "Mul", "input": ["StatefulPartitionedCall/functional_1/efficientnetb0_1/block3b_activation_1/mul_1", "StatefulPartitionedCall/functional_1/efficientnetb0_1/block3b_se_expand_1/Sigmoid"], "attr": {"T": {"type": "DT_FLOAT"}}}, {"name": "StatefulPartitionedCall/functional_1/efficientnetb0_1/block3b_project_bn_1/batchnorm/mul_1", "op": "Conv2D", "input": ["StatefulPartitionedCall/functional_1/efficientnetb0_1/block3b_se_excite_1/Mul", "StatefulPartitionedCall/functional_1/efficientnetb0_1/block3b_project_conv_1/convolution/merged_input"], "device": "/device:CPU:0", "attr": {"explicit_paddings": {"list": {}}, "_input_shapes": {"list": {"shape": [{"dim": [{"size": "-2"}, {"size": "-5"}, {"size": "-6"}, {"size": "240"}]}, {"dim": [{"size": "1"}, {"size": "1"}, {"size": "240"}, {"size": "40"}]}]}}, "use_cudnn_on_gpu": {"b": true}, "padding": {"s": "U0FNRQ=="}, "data_format": {"s": "TkhXQw=="}, "T": {"type": "DT_FLOAT"}, "strides": {"list": {"i": ["1", "1", "1", "1"]}}, "dilations": {"list": {"i": ["1", "1", "1", "1"]}}}}, {"name": "StatefulPartitionedCall/functional_1/efficientnetb0_1/block3b_add_1/ArithmeticOptimizer/AddOpsRewrite_Leaf_1_Add", "op": "AddN", "input": ["StatefulPartitionedCall/functional_1/efficientnetb0_1/block3b_project_bn_1/batchnorm/mul_1", "StatefulPartitionedCall/functional_1/efficientnetb0_1/block3a_project_bn_1/batchnorm/add_1"], "attr": {"_grappler_ArithmeticOptimizer_AddOpsRewriteStage": {"b": true}, "T": {"type": "DT_FLOAT"}, "N": {"i": "2"}}}, {"name": "StatefulPartitionedCall/functional_1/efficientnetb0_1/block3b_add_1/ArithmeticOptimizer/AddOpsRewrite_Add", "op": "AddV2", "input": ["StatefulPartitionedCall/functional_1/efficientnetb0_1/block3b_project_bn_1/batchnorm/sub", "StatefulPartitionedCall/functional_1/efficientnetb0_1/block3b_add_1/ArithmeticOptimizer/AddOpsRewrite_Leaf_1_Add"], "attr": {"_grappler_ArithmeticOptimizer_AddOpsRewriteStage": {"b": true}, "T": {"type": "DT_FLOAT"}}}, {"name": "StatefulPartitionedCall/functional_1/efficientnetb0_1/block4a_expand_bn_1/batchnorm/mul_1", "op": "Conv2D", "input": ["StatefulPartitionedCall/functional_1/efficientnetb0_1/block3b_add_1/ArithmeticOptimizer/AddOpsRewrite_Add", "StatefulPartitionedCall/functional_1/efficientnetb0_1/block4a_expand_conv_1/convolution/merged_input"], "device": "/device:CPU:0", "attr": {"explicit_paddings": {"list": {}}, "_input_shapes": {"list": {"shape": [{"dim": [{"size": "-2"}, {"size": "-5"}, {"size": "-6"}, {"size": "40"}]}, {"dim": [{"size": "1"}, {"size": "1"}, {"size": "40"}, {"size": "240"}]}]}}, "use_cudnn_on_gpu": {"b": true}, "data_format": {"s": "TkhXQw=="}, "padding": {"s": "U0FNRQ=="}, "T": {"type": "DT_FLOAT"}, "strides": {"list": {"i": ["1", "1", "1", "1"]}}, "dilations": {"list": {"i": ["1", "1", "1", "1"]}}}}, {"name": "StatefulPartitionedCall/functional_1/efficientnetb0_1/block4a_expand_bn_1/batchnorm/add_1", "op": "AddV2", "input": ["StatefulPartitionedCall/functional_1/efficientnetb0_1/block4a_expand_bn_1/batchnorm/mul_1", "StatefulPartitionedCall/functional_1/efficientnetb0_1/block4a_expand_bn_1/batchnorm/sub"], "attr": {"T": {"type": "DT_FLOAT"}}}, {"name": "StatefulPartitionedCall/functional_1/efficientnetb0_1/block4a_expand_activation_1/Sigmoid", "op": "Sigmoid", "input": ["StatefulPartitionedCall/functional_1/efficientnetb0_1/block4a_expand_bn_1/batchnorm/add_1"], "attr": {"T": {"type": "DT_FLOAT"}, "_input_shapes": {"list": {"shape": [{"dim": [{"size": "-2"}, {"size": "-5"}, {"size": "-6"}, {"size": "240"}]}]}}}}, {"name": "StatefulPartitionedCall/functional_1/efficientnetb0_1/block4a_expand_activation_1/mul_1", "op": "Mul", "input": ["StatefulPartitionedCall/functional_1/efficientnetb0_1/block4a_expand_bn_1/batchnorm/add_1", "StatefulPartitionedCall/functional_1/efficientnetb0_1/block4a_expand_activation_1/Sigmoid"], "attr": {"T": {"type": "DT_FLOAT"}}}, {"name": "StatefulPartitionedCall/functional_1/efficientnetb0_1/block4a_dwconv_pad_1/Pad", "op": "Pad", "input": ["StatefulPartitionedCall/functional_1/efficientnetb0_1/block4a_expand_activation_1/mul_1", "StatefulPartitionedCall/functional_1/efficientnetb0_1/block4a_dwconv_pad_1/Const"], "attr": {"T": {"type": "DT_FLOAT"}, "Tpaddings": {"type": "DT_INT32"}}}, {"name": "StatefulPartitionedCall/functional_1/efficientnetb0_1/block4a_dwconv_1/depthwise", "op": "DepthwiseConv2dNative", "input": ["StatefulPartitionedCall/functional_1/efficientnetb0_1/block4a_dwconv_pad_1/Pad", "StatefulPartitionedCall/functional_1/efficientnetb0_1/block4a_dwconv_1/depthwise/ReadVariableOp"], "attr": {"explicit_paddings": {"list": {}}, "data_format": {"s": "TkhXQw=="}, "padding": {"s": "VkFMSUQ="}, "strides": {"list": {"i": ["1", "2", "2", "1"]}}, "T": {"type": "DT_FLOAT"}, "dilations": {"list": {"i": ["1", "1", "1", "1"]}}, "_input_shapes": {"list": {"shape": [{"dim": [{"size": "-2"}, {"size": "-22"}, {"size": "-23"}, {"size": "240"}]}, {"dim": [{"size": "3"}, {"size": "3"}, {"size": "240"}, {"size": "1"}]}]}}}}, {"name": "StatefulPartitionedCall/functional_1/efficientnetb0_1/block4a_bn_1/batchnorm/mul_1", "op": "Mul", "input": ["StatefulPartitionedCall/functional_1/efficientnetb0_1/block4a_dwconv_1/depthwise", "StatefulPartitionedCall/functional_1/efficientnetb0_1/block4a_bn_1/batchnorm/mul"], "attr": {"T": {"type": "DT_FLOAT"}}}, {"name": "StatefulPartitionedCall/functional_1/efficientnetb0_1/block4a_bn_1/batchnorm/add_1", "op": "AddV2", "input": ["StatefulPartitionedCall/functional_1/efficientnetb0_1/block4a_bn_1/batchnorm/mul_1", "StatefulPartitionedCall/functional_1/efficientnetb0_1/block4a_bn_1/batchnorm/sub"], "attr": {"T": {"type": "DT_FLOAT"}}}, {"name": "StatefulPartitionedCall/functional_1/efficientnetb0_1/block4a_activation_1/Sigmoid", "op": "Sigmoid", "input": ["StatefulPartitionedCall/functional_1/efficientnetb0_1/block4a_bn_1/batchnorm/add_1"], "attr": {"T": {"type": "DT_FLOAT"}, "_input_shapes": {"list": {"shape": [{"dim": [{"size": "-2"}, {"size": "-7"}, {"size": "-8"}, {"size": "240"}]}]}}}}, {"name": "StatefulPartitionedCall/functional_1/efficientnetb0_1/block4a_activation_1/mul_1", "op": "Mul", "input": ["StatefulPartitionedCall/functional_1/efficientnetb0_1/block4a_bn_1/batchnorm/add_1", "StatefulPartitionedCall/functional_1/efficientnetb0_1/block4a_activation_1/Sigmoid"], "attr": {"T": {"type": "DT_FLOAT"}}}, {"name": "StatefulPartitionedCall/functional_1/efficientnetb0_1/block4a_se_squeeze_1/Mean", "op": "Mean", "input": ["StatefulPartitionedCall/functional_1/efficientnetb0_1/block4a_activation_1/mul_1", "StatefulPartitionedCall/functional_1/efficientnetb0_1/block4a_se_squeeze_1/Mean/reduction_indices"], "attr": {"Tidx": {"type": "DT_INT32"}, "T": {"type": "DT_FLOAT"}, "keep_dims": {"b": false}}}, {"name": "StatefulPartitionedCall/functional_1/efficientnetb0_1/block4a_se_reshape_1/Shape", "op": "Shape", "input": ["StatefulPartitionedCall/functional_1/efficientnetb0_1/block4a_se_squeeze_1/Mean"], "attr": {"out_type": {"type": "DT_INT32"}, "T": {"type": "DT_FLOAT"}}, "experimentalType": {"typeId": "TFT_PRODUCT", "args": [{"typeId": "TFT_SHAPE_TENSOR", "args": [{"typeId": "TFT_INT32"}]}]}}, {"name": "StatefulPartitionedCall/functional_1/efficientnetb0_1/block4a_se_reshape_1/strided_slice", "op": "StridedSlice", "input": ["StatefulPartitionedCall/functional_1/efficientnetb0_1/block4a_se_reshape_1/Shape", "StatefulPartitionedCall/functional_1/efficientnetb0_1/block4a_se_reshape_1/strided_slice/stack", "StatefulPartitionedCall/functional_1/efficientnetb0_1/block4a_se_reshape_1/strided_slice/stack_1", "StatefulPartitionedCall/functional_1/efficientnetb0_1/block4a_se_reshape_1/strided_slice/stack_2"], "attr": {"ellipsis_mask": {"i": "0"}, "end_mask": {"i": "0"}, "T": {"type": "DT_INT32"}, "shrink_axis_mask": {"i": "1"}, "new_axis_mask": {"i": "0"}, "Index": {"type": "DT_INT32"}, "begin_mask": {"i": "0"}}}, {"name": "StatefulPartitionedCall/functional_1/efficientnetb0_1/block4a_se_reshape_1/Reshape/shape", "op": "Pack", "input": ["StatefulPartitionedCall/functional_1/efficientnetb0_1/block4a_se_reshape_1/strided_slice", "StatefulPartitionedCall/functional_1/efficientnetb0_1/block4a_se_reshape_1/Reshape/shape/1", "StatefulPartitionedCall/functional_1/efficientnetb0_1/block4a_se_reshape_1/Reshape/shape/2", "StatefulPartitionedCall/functional_1/efficientnetb0_1/block4a_se_reshape_1/Reshape/shape/3"], "attr": {"T": {"type": "DT_INT32"}, "axis": {"i": "0"}, "N": {"i": "4"}}}, {"name": "StatefulPartitionedCall/functional_1/efficientnetb0_1/block4a_se_reshape_1/Reshape", "op": "Reshape", "input": ["StatefulPartitionedCall/functional_1/efficientnetb0_1/block4a_se_squeeze_1/Mean", "StatefulPartitionedCall/functional_1/efficientnetb0_1/block4a_se_reshape_1/Reshape/shape"], "attr": {"Tshape": {"type": "DT_INT32"}, "T": {"type": "DT_FLOAT"}}}, {"name": "StatefulPartitionedCall/functional_1/efficientnetb0_1/block4a_se_reduce_1/BiasAdd", "op": "_FusedConv2D", "input": ["StatefulPartitionedCall/functional_1/efficientnetb0_1/block4a_se_reshape_1/Reshape", "StatefulPartitionedCall/functional_1/efficientnetb0_1/block4a_se_reduce_1/convolution/ReadVariableOp", "StatefulPartitionedCall/functional_1/efficientnetb0_1/block4a_se_reduce_1/Squeeze"], "device": "/device:CPU:0", "attr": {"explicit_paddings": {"list": {}}, "epsilon": {"f": 0.0}, "filter_format": {"s": "SFdJTw=="}, "leakyrelu_alpha": {"f": 0.2}, "use_cudnn_on_gpu": {"b": true}, "num_host_args": {"i": "0"}, "data_format": {"s": "TkhXQw=="}, "num_args": {"i": "1"}, "_input_shapes": {"list": {"shape": [{"dim": [{"size": "-2"}, {"size": "1"}, {"size": "1"}, {"size": "240"}]}, {"dim": [{"size": "1"}, {"size": "1"}, {"size": "240"}, {"size": "10"}]}]}}, "TArgs": {"list": {"type": ["DT_FLOAT"]}}, "padding": {"s": "U0FNRQ=="}, "fused_ops": {"list": {"s": ["Qmlhc0FkZA=="]}}, "T": {"type": "DT_FLOAT"}, "strides": {"list": {"i": ["1", "1", "1", "1"]}}, "dilations": {"list": {"i": ["1", "1", "1", "1"]}}}}, {"name": "StatefulPartitionedCall/functional_1/efficientnetb0_1/block4a_se_reduce_1/Sigmoid", "op": "Sigmoid", "input": ["StatefulPartitionedCall/functional_1/efficientnetb0_1/block4a_se_reduce_1/BiasAdd"], "attr": {"T": {"type": "DT_FLOAT"}, "_input_shapes": {"list": {"shape": [{"dim": [{"size": "-2"}, {"size": "1"}, {"size": "1"}, {"size": "10"}]}]}}}}, {"name": "StatefulPartitionedCall/functional_1/efficientnetb0_1/block4a_se_reduce_1/mul_1", "op": "Mul", "input": ["StatefulPartitionedCall/functional_1/efficientnetb0_1/block4a_se_reduce_1/BiasAdd", "StatefulPartitionedCall/functional_1/efficientnetb0_1/block4a_se_reduce_1/Sigmoid"], "attr": {"T": {"type": "DT_FLOAT"}}}, {"name": "StatefulPartitionedCall/functional_1/efficientnetb0_1/block4a_se_expand_1/BiasAdd", "op": "_FusedConv2D", "input": ["StatefulPartitionedCall/functional_1/efficientnetb0_1/block4a_se_reduce_1/mul_1", "StatefulPartitionedCall/functional_1/efficientnetb0_1/block4a_se_expand_1/convolution/ReadVariableOp", "StatefulPartitionedCall/functional_1/efficientnetb0_1/block4a_se_expand_1/Squeeze"], "device": "/device:CPU:0", "attr": {"explicit_paddings": {"list": {}}, "epsilon": {"f": 0.0}, "filter_format": {"s": "SFdJTw=="}, "leakyrelu_alpha": {"f": 0.2}, "use_cudnn_on_gpu": {"b": true}, "num_host_args": {"i": "0"}, "data_format": {"s": "TkhXQw=="}, "num_args": {"i": "1"}, "_input_shapes": {"list": {"shape": [{"dim": [{"size": "-2"}, {"size": "1"}, {"size": "1"}, {"size": "…
{"size": "48"}]}, {"dim": [{"size": "1"}, {"size": "1"}, {"size": "48"}, {"size": "1152"}]}]}}, "num_host_args": {"i": "0"}, "data_format": {"s": "TkhXQw=="}, "num_args": {"i": "1"}, "use_cudnn_on_gpu": {"b": true}, "TArgs": {"list": {"type": ["DT_FLOAT"]}}, "padding": {"s": "U0FNRQ=="}, "fused_ops": {"list": {"s": ["Qmlhc0FkZA=="]}}, "strides": {"list": {"i": ["1", "1", "1", "1"]}}, "T": {"type": "DT_FLOAT"}, "dilations": {"list": {"i": ["1", "1", "1", "1"]}}}}, {"name": "StatefulPartitionedCall/functional_1/efficientnetb0_1/block7a_se_expand_1/Sigmoid", "op": "Sigmoid", "input": ["StatefulPartitionedCall/functional_1/efficientnetb0_1/block7a_se_expand_1/BiasAdd"], "attr": {"T": {"type": "DT_FLOAT"}, "_input_shapes": {"list": {"shape": [{"dim": [{"size": "-2"}, {"size": "1"}, {"size": "1"}, {"size": "1152"}]}]}}}}, {"name": "StatefulPartitionedCall/functional_1/efficientnetb0_1/block7a_se_excite_1/Mul", "op": "Mul", "input": ["StatefulPartitionedCall/functional_1/efficientnetb0_1/block7a_activation_1/mul_1", "StatefulPartitionedCall/functional_1/efficientnetb0_1/block7a_se_expand_1/Sigmoid"], "attr": {"T": {"type": "DT_FLOAT"}}}, {"name": "StatefulPartitionedCall/functional_1/efficientnetb0_1/block7a_project_bn_1/batchnorm/mul_1", "op": "Conv2D", "input": ["StatefulPartitionedCall/functional_1/efficientnetb0_1/block7a_se_excite_1/Mul", "StatefulPartitionedCall/functional_1/efficientnetb0_1/block7a_project_conv_1/convolution/merged_input"], "device": "/device:CPU:0", "attr": {"explicit_paddings": {"list": {}}, "_input_shapes": {"list": {"shape": [{"dim": [{"size": "-2"}, {"size": "-9"}, {"size": "-10"}, {"size": "1152"}]}, {"dim": [{"size": "1"}, {"size": "1"}, {"size": "1152"}, {"size": "320"}]}]}}, "use_cudnn_on_gpu": {"b": true}, "padding": {"s": "U0FNRQ=="}, "data_format": {"s": "TkhXQw=="}, "T": {"type": "DT_FLOAT"}, "strides": {"list": {"i": ["1", "1", "1", "1"]}}, "dilations": {"list": {"i": ["1", "1", "1", "1"]}}}}, {"name": "StatefulPartitionedCall/functional_1/efficientnetb0_1/block7a_project_bn_1/batchnorm/add_1", "op": "AddV2", "input": ["StatefulPartitionedCall/functional_1/efficientnetb0_1/block7a_project_bn_1/batchnorm/mul_1", "StatefulPartitionedCall/functional_1/efficientnetb0_1/block7a_project_bn_1/batchnorm/sub"], "attr": {"T": {"type": "DT_FLOAT"}}}, {"name": "StatefulPartitionedCall/functional_1/efficientnetb0_1/top_bn_1/batchnorm/mul_1", "op": "Conv2D", "input": ["StatefulPartitionedCall/functional_1/efficientnetb0_1/block7a_project_bn_1/batchnorm/add_1", "StatefulPartitionedCall/functional_1/efficientnetb0_1/top_conv_1/convolution/merged_input"], "device": "/device:CPU:0", "attr": {"explicit_paddings": {"list": {}}, "use_cudnn_on_gpu": {"b": true}, "_input_shapes": {"list": {"shape": [{"dim": [{"size": "-2"}, {"size": "-9"}, {"size": "-10"}, {"size": "320"}]}, {"dim": [{"size": "1"}, {"size": "1"}, {"size": "320"}, {"size": "1280"}]}]}}, "padding": {"s": "U0FNRQ=="}, "data_format": {"s": "TkhXQw=="}, "strides": {"list": {"i": ["1", "1", "1", "1"]}}, "T": {"type": "DT_FLOAT"}, "dilations": {"list": {"i": ["1", "1", "1", "1"]}}}}, {"name": "StatefulPartitionedCall/functional_1/efficientnetb0_1/top_bn_1/batchnorm/add_1", "op": "AddV2", "input": ["StatefulPartitionedCall/functional_1/efficientnetb0_1/top_bn_1/batchnorm/mul_1", "StatefulPartitionedCall/functional_1/efficientnetb0_1/top_bn_1/batchnorm/sub"], "attr": {"T": {"type": "DT_FLOAT"}}}, {"name": "StatefulPartitionedCall/functional_1/efficientnetb0_1/top_activation_1/Sigmoid", "op": "Sigmoid", "input": ["StatefulPartitionedCall/functional_1/efficientnetb0_1/top_bn_1/batchnorm/add_1"], "attr": {"T": {"type": "DT_FLOAT"}, "_input_shapes": {"list": {"shape": [{"dim": [{"size": "-2"}, {"size": "-9"}, {"size": "-10"}, {"size": "1280"}]}]}}}}, {"name": "StatefulPartitionedCall/functional_1/efficientnetb0_1/top_activation_1/mul_1", "op": "Mul", "input": ["StatefulPartitionedCall/functional_1/efficientnetb0_1/top_bn_1/batchnorm/add_1", "StatefulPartitionedCall/functional_1/efficientnetb0_1/top_activation_1/Sigmoid"], "attr": {"T": {"type": "DT_FLOAT"}}}, {"name": "StatefulPartitionedCall/functional_1/global_average_pooling2d_1/Mean", "op": "Mean", "input": ["StatefulPartitionedCall/functional_1/efficientnetb0_1/top_activation_1/mul_1", "StatefulPartitionedCall/functional_1/global_average_pooling2d_1/Mean/reduction_indices"], "attr": {"Tidx": {"type": "DT_INT32"}, "T": {"type": "DT_FLOAT"}, "keep_dims": {"b": false}}}, {"name": "StatefulPartitionedCall/functional_1/dense_1/Relu", "op": "_FusedMatMul", "input": ["StatefulPartitionedCall/functional_1/global_average_pooling2d_1/Mean", "StatefulPartitionedCall/functional_1/dense_1/Cast/ReadVariableOp", "StatefulPartitionedCall/functional_1/dense_1/BiasAdd/ReadVariableOp"], "device": "/device:CPU:0", "attr": {"transpose_a": {"b": false}, "epsilon": {"f": 0.0}, "leakyrelu_alpha": {"f": 0.2}, "_input_shapes": {"list": {"shape": [{"dim": [{"size": "-2"}, {"size": "1280"}]}, {"dim": [{"size": "1280"}, {"size": "256"}]}]}}, "fused_ops": {"list": {"s": ["Qmlhc0FkZA==", "UmVsdQ=="]}}, "T": {"type": "DT_FLOAT"}, "num_args": {"i": "1"}, "transpose_b": {"b": false}}}, {"name": "StatefulPartitionedCall/functional_1/dense_1_2/BiasAdd", "op": "_FusedMatMul", "input": ["StatefulPartitionedCall/functional_1/dense_1/Relu", "StatefulPartitionedCall/functional_1/dense_1_2/Cast/ReadVariableOp", "StatefulPartitionedCall/functional_1/dense_1_2/BiasAdd/ReadVariableOp"], "device": "/device:CPU:0", "attr": {"transpose_a": {"b": false}, "epsilon": {"f": 0.0}, "leakyrelu_alpha": {"f": 0.2}, "_input_shapes": {"list": {"shape": [{"dim": [{"size": "-2"}, {"size": "256"}]}, {"dim": [{"size": "256"}, {"size": "6"}]}]}}, "fused_ops": {"list": {"s": ["Qmlhc0FkZA=="]}}, "T": {"type": "DT_FLOAT"}, "num_args": {"i": "1"}, "transpose_b": {"b": false}}}, {"name": "StatefulPartitionedCall/functional_1/dense_1_2/Softmax", "op": "Softmax", "input": ["StatefulPartitionedCall/functional_1/dense_1_2/BiasAdd"], "attr": {"T": {"type": "DT_FLOAT"}}}, {"name": "Identity", "op": "Identity", "input": ["StatefulPartitionedCall/functional_1/dense_1_2/Softmax"], "attr": {"T": {"type": "DT_FLOAT"}}}], "library": {}, "versions": {"producer": 2474}}, "weightsManifest": [{"paths": ["group1-shard1of5.bin", "group1-shard2of5.bin", "group1-shard3of5.bin", "group1-shard4of5.bin", "group1-shard5of5.bin"], "weights": [{"name": "StatefulPartitionedCall/functional_1/efficientnetb0_1/block6d_project_bn_1/batchnorm/sub", "shape": [1, 1, 1, 192], "dtype": "float32"}, {"name": "StatefulPartitionedCall/functional_1/efficientnetb0_1/block6d_expand_conv_1/convolution/merged_input", "shape": [1, 1, 192, 1152], "dtype": "float32"}, {"name": "StatefulPartitionedCall/functional_1/efficientnetb0_1/block6d_expand_bn_1/batchnorm/sub", "shape": [1, 1, 1, 1152], "dtype": "float32"}, {"name": "StatefulPartitionedCall/functional_1/efficientnetb0_1/block6d_dwconv_1/depthwise/ReadVariableOp", "shape": [5, 5, 1152, 1], "dtype": "float32"}, {"name": "StatefulPartitionedCall/functional_1/efficientnetb0_1/block6d_bn_1/batchnorm/mul", "shape": [1, 1, 1, 1152], "dtype": "float32"}, {"name": "StatefulPartitionedCall/functional_1/efficientnetb0_1/block6d_bn_1/batchnorm/sub", "shape": [1, 1, 1, 1152], "dtype": "float32"}, {"name": "StatefulPartitionedCall/functional_1/efficientnetb0_1/block6d_se_squeeze_1/Mean/reduction_indices", "shape": [2], "dtype": "int32"}, {"name": "StatefulPartitionedCall/functional_1/efficientnetb0_1/block6d_se_reshape_1/strided_slice/stack", "shape": [1], "dtype": "int32"}, {"name": "StatefulPartitionedCall/functional_1/efficientnetb0_1/block6d_se_reshape_1/strided_slice/stack_1", "shape": [1], "dtype": "int32"}, {"name": "StatefulPartitionedCall/functional_1/efficientnetb0_1/block6d_se_reshape_1/strided_slice/stack_2", "shape": [1], "dtype": "int32"}, {"name": "StatefulPartitionedCall/functional_1/efficientnetb0_1/block6d_se_reshape_1/Reshape/shape/1", "shape": [], "dtype": "int32"}, {"name": "StatefulPartitionedCall/functional_1/efficientnetb0_1/block6d_se_reshape_1/Reshape/shape/2", "shape": [], "dtype": "int32"}, {"name": "StatefulPartitionedCall/functional_1/efficientnetb0_1/block6d_se_reshape_1/Reshape/shape/3", "shape": [], "dtype": "int32"}, {"name": "StatefulPartitionedCall/functional_1/efficientnetb0_1/block6d_se_reduce_1/convolution/ReadVariableOp", "shape": [1, 1, 1152, 48], "dtype": "float32"}, {"name": "StatefulPartitionedCall/functional_1/efficientnetb0_1/block6d_se_reduce_1/Squeeze", "shape": [48], "dtype": "float32"}, {"name": "StatefulPartitionedCall/functional_1/efficientnetb0_1/block6d_se_expand_1/convolution/ReadVariableOp", "shape": [1, 1, 48, 1152], "dtype": "float32"}, {"name": "StatefulPartitionedCall/functional_1/efficientnetb0_1/block6d_se_expand_1/Squeeze", "shape": [1152], "dtype": "float32"}, {"name": "StatefulPartitionedCall/functional_1/efficientnetb0_1/block6d_project_conv_1/convolution/merged_input", "shape": [1, 1, 1152, 192], "dtype": "float32"}, {"name": "StatefulPartitionedCall/functional_1/efficientnetb0_1/block6c_project_bn_1/batchnorm/sub", "shape": [1, 1, 1, 192], "dtype": "float32"}, {"name": "StatefulPartitionedCall/functional_1/efficientnetb0_1/block6c_expand_conv_1/convolution/merged_input", "shape": [1, 1, 192, 1152], "dtype": "float32"}, {"name": "StatefulPartitionedCall/functional_1/efficientnetb0_1/block6c_expand_bn_1/batchnorm/sub", "shape": [1, 1, 1, 1152], "dtype": "float32"}, {"name": "StatefulPartitionedCall/functional_1/efficientnetb0_1/block6c_dwconv_1/depthwise/ReadVariableOp", "shape": [5, 5, 1152, 1], "dtype": "float32"}, {"name": "StatefulPartitionedCall/functional_1/efficientnetb0_1/block6c_bn_1/batchnorm/mul", "shape": [1, 1, 1, 1152], "dtype": "float32"}, {"name": "StatefulPartitionedCall/functional_1/efficientnetb0_1/block6c_bn_1/batchnorm/sub", "shape": [1, 1, 1, 1152], "dtype": "float32"}, {"name": "StatefulPartitionedCall/functional_1/efficientnetb0_1/block6c_se_squeeze_1/Mean/reduction_indices", "shape": [2], "dtype": "int32"}, {"name": "StatefulPartitionedCall/functional_1/efficientnetb0_1/block6c_se_reshape_1/strided_slice/stack", "shape": [1], "dtype": "int32"}, {"name": "StatefulPartitionedCall/functional_1/efficientnetb0_1/block6c_se_reshape_1/strided_slice/stack_1", "shape": [1], "dtype": "int32"}, {"name": "StatefulPartitionedCall/functional_1/efficientnetb0_1/block6c_se_reshape_1/strided_slice/stack_2", "shape": [1], "dtype": "int32"}, {"name": "StatefulPartitionedCall/functional_1/efficientnetb0_1/block6c_se_reshape_1/Reshape/shape/1", "shape": [], "dtype": "int32"}, {"name": "StatefulPartitionedCall/functional_1/efficientnetb0_1/block6c_se_reshape_1/Reshape/shape/2", "shape": [], "dtype": "int32"}, {"name": "StatefulPartitionedCall/functional_1/efficientnetb0_1/block6c_se_reshape_1/Reshape/shape/3", "shape": [], "dtype": "int32"}, {"name": "StatefulPartitionedCall/functional_1/efficientnetb0_1/block6c_se_reduce_1/convolution/ReadVariableOp", "shape": [1, 1, 1152, 48], "dtype": "float32"}, {"name": "StatefulPartitionedCall/functional_1/efficientnetb0_1/block6c_se_reduce_1/Squeeze", "shape": [48], "dtype": "float32"}, {"name": "StatefulPartitionedCall/functional_1/efficientnetb0_1/block6c_se_expand_1/convolution/ReadVariableOp", "shape": [1, 1, 48, 1152], "dtype": "float32"}, {"name": "StatefulPartitionedCall/functional_1/efficientnetb0_1/block6c_se_expand_1/Squeeze", "shape": [1152], "dtype": "float32"}, {"name": "StatefulPartitionedCall/functional_1/efficientnetb0_1/block6c_project_conv_1/convolution/merged_input", "shape": [1, 1, 1152, 192], "dtype": "float32"}, {"name": "StatefulPartitionedCall/functional_1/efficientnetb0_1/block6b_project_bn_1/batchnorm/sub", "shape": [1, 1, 1, 192], "dtype": "float32"}, {"name": "StatefulPartitionedCall/functional_1/efficientnetb0_1/block6b_expand_conv_1/convolution/merged_input", "shape": [1, 1, 192, 1152], "dtype": "float32"}, {"name": "StatefulPartitionedCall/functional_1/efficientnetb0_1/block6b_expand_bn_1/batchnorm/sub", "shape": [1, 1, 1, 1152], "dtype": "float32"}, {"name": "StatefulPartitionedCall/functional_1/efficientnetb0_1/block6b_dwconv_1/depthwise/ReadVariableOp", "shape": [5, 5, 1152, 1], "dtype": "float32"}, {"name": "StatefulPartitionedCall/functional_1/efficientnetb0_1/block6b_bn_1/batchnorm/mul", "shape": [1, 1, 1, 1152], "dtype": "float32"}, {"name": "StatefulPartitionedCall/functional_1/efficientnetb0_1/block6b_bn_1/batchnorm/sub", "shape": [1, 1, 1, 1152], "dtype": "float32"}, {"name": "StatefulPartitionedCall/functional_1/efficientnetb0_1/block6b_se_squeeze_1/Mean/reduction_indices", "shape": [2], "dtype": "int32"}, {"name": "StatefulPartitionedCall/functional_1/efficientnetb0_1/block6b_se_reshape_1/strided_slice/stack", "shape": [1], "dtype": "int32"}, {"name": "StatefulPartitionedCall/functional_1/efficientnetb0_1/block6b_se_reshape_1/strided_slice/stack_1", "shape": [1], "dtype": "int32"}, {"name": "StatefulPartitionedCall/functional_1/efficientnetb0_1/block6b_se_reshape_1/strided_slice/stack_2", "shape": [1], "dtype": "int32"}, {"name": "StatefulPartitionedCall/functional_1/efficientnetb0_1/block6b_se_reshape_1/Reshape/shape/1", "shape": [], "dtype": "int32"}, {"name": "StatefulPartitionedCall/functional_1/efficientnetb0_1/block6b_se_reshape_1/Reshape/shape/2", "shape": [], "dtype": "int32"}, {"name": "StatefulPartitionedCall/functional_1/efficientnetb0_1/block6b_se_reshape_1/Reshape/shape/3", "shape": [], "dtype": "int32"}, {"name": "StatefulPartitionedCall/functional_1/efficientnetb0_1/block6b_se_reduce_1/convolution/ReadVariableOp", "shape": [1, 1, 1152, 48], "dtype": "float32"}, {"name": "StatefulPartitionedCall/functional_1/efficientnetb0_1/block6b_se_reduce_1/Squeeze", "shape": [48], "dtype": "float32"}, {"name": "StatefulPartitionedCall/functional_1/efficientnetb0_1/block6b_se_expand_1/convolution/ReadVariableOp", "shape": [1, 1, 48, 1152], "dtype": "float32"}, {"name": "StatefulPartitionedCall/functional_1/efficientnetb0_1/block6b_se_expand_1/Squeeze", "shape": [1152], "dtype": "float32"}, {"name": "StatefulPartitionedCall/functional_1/efficientnetb0_1/block6b_project_conv_1/convolution/merged_input", "shape": [1, 1, 1152, 192], "dtype": "float32"}, {"name": "StatefulPartitionedCall/functional_1/efficientnetb0_1/block5c_project_bn_1/batchnorm/sub", "shape": [1, 1, 1, 112], "dtype": "float32"}, {"name": "StatefulPartitionedCall/functional_1/efficientnetb0_1/block5c_expand_conv_1/convolution/merged_input", "shape": [1, 1, 112, 672], "dtype": "float32"}, {"name": "StatefulPartitionedCall/functional_1/efficientnetb0_1/block5c_expand_bn_1/batchnorm/sub", "shape": [1, 1, 1, 672], "dtype": "float32"}, {"name": "StatefulPartitionedCall/functional_1/efficientnetb0_1/block5c_dwconv_1/depthwise/ReadVariableOp", "shape": [5, 5, 672, 1], "dtype": "float32"}, {"name": "StatefulPartitionedCall/functional_1/efficientnetb0_1/block5c_bn_1/batchnorm/mul", "shape": [1, 1, 1, 672], "dtype": "float32"}, {"name": "StatefulPartitionedCall/functional_1/efficientnetb0_1/block5c_bn_1/batchnorm/sub", "shape": [1, 1, 1, 672], "dtype": "float32"}, {"name": "StatefulPartitionedCall/functional_1/efficientnetb0_1/block5c_se_squeeze_1/Mean/reduction_indices", "shape": [2], "dtype": "int32"}, {"name": "StatefulPartitionedCall/functional_1/efficientnetb0_1/block5c_se_reshape_1/strided_slice/stack", "shape": [1], "dtype": "int32"}, {"name": "StatefulPartitionedCall/functional_1/efficientnetb0_1/block5c_se_reshape_1/strided_slice/stack_1", "shape": [1], "dtype": "int32"}, {"name": "StatefulPartitionedCall/functional_1/efficientnetb0_1/block5c_se_reshape_1/strided_slice/stack_2", "shape": [1], "dtype": "int32"}, {"name": "StatefulPartitionedCall/functional_1/efficientnetb0_1/block5c_se_reshape_1/Reshape/shape/1", "shape": [], "dtype": "int32"}, {"name": "StatefulPartitionedCall/functional_1/efficientnetb0_1/block5c_se_reshape_1/Reshape/shape/2", "shape": [], "dtype": "int32"}, {"name": "StatefulPartitionedCall/functional_1/efficientnetb0_1/block5c_se_reshape_1/Reshape/shape/3", "shape": [], "dtype": "int32"}, {"name": "StatefulPartitionedCall/functional_1/efficientnetb0_1/block5c_se_reduce_1/convolution/ReadVariableOp", "shape": [1, 1, 672, 28], "dtype": "float32"}, {"name": "StatefulPartitionedCall/functional_1/efficientnetb0_1/block5c_se_reduce_1/Squeeze", "shape": [28], "dtype": "float32"}, {"name": "StatefulPartitionedCall/functional_1/efficientnetb0_1/block5c_se_expand_1/convolution/ReadVariableOp", "shape": [1, 1, 28, 672], "dtype": "float32"}, {"name": "StatefulPartitionedCall/functional_1/efficientnetb0_1/block5c_se_expand_1/Squeeze", "shape": [672], "dtype": "float32"}, {"name": "StatefulPartitionedCall/functional_1/efficientnetb0_1/block5c_project_conv_1/convolution/merged_input", "shape": [1, 1, 672, 112], "dtype": "float32"}, {"name": "StatefulPartitionedCall/functional_1/efficientnetb0_1/block5b_project_bn_1/batchnorm/sub", "shape": [1, 1, 1, 112], "dtype": "float32"}, {"name": "StatefulPartitionedCall/functional_1/efficientnetb0_1/block5b_expand_conv_1/convolution/merged_input", "shape": [1, 1, 112, 672], "dtype": "float32"}, {"name": "StatefulPartitionedCall/functional_1/efficientnetb0_1/block5b_expand_bn_1/batchnorm/sub", "shape": [1, 1, 1, 672], "dtype": "float32"}, {"name": "StatefulPartitionedCall/functional_1/efficientnetb0_1/block5b_dwconv_1/depthwise/ReadVariableOp", "shape": [5, 5, 672, 1], "dtype": "float32"}, {"name": "StatefulPartitionedCall/functional_1/efficientnetb0_1/block5b_bn_1/batchnorm/mul", "shape": [1, 1, 1, 672], "dtype": "float32"}, {"name": "StatefulPartitionedCall/functional_1/efficientnetb0_1/block5b_bn_1/batchnorm/sub", "shape": [1, 1, 1, 672], "dtype": "float32"}, {"name": "StatefulPartitionedCall/functional_1/efficientnetb0_1/block5b_se_squeeze_1/Mean/reduction_indices", "shape": [2], "dtype": "int32"}, {"name": "StatefulPartitionedCall/functional_1/efficientnetb0_1/block5b_se_reshape_1/strided_slice/stack", "shape": [1], "dtype": "int32"}, {"name": "StatefulPartitionedCall/functional_1/efficientnetb0_1/block5b_se_reshape_1/strided_slice/stack_1", "shape": [1], "dtype": "int32"}, {"name": "StatefulPartitionedCall/functional_1/efficientnetb0_1/block5b_se_reshape_1/strided_slice/stack_2", "shape": [1], "dtype": "int32"}, {"name": "StatefulPartitionedCall/functional_1/efficientnetb0_1/block5b_se_reshape_1/Reshape/shape/1", "shape": [], "dtype": "int32"}, {"name": "StatefulPartitionedCall/functional_1/efficientnetb0_1/block5b_se_reshape_1/Reshape/shape/2", "shape": [], "dtype": "int32"}, {"name": "StatefulPartitionedCall/functional_1/efficientnetb0_1/block5b_se_reshape_1/Reshape/shape/3", "shape": [], "dtype": "int32"}, {"name": "StatefulPartitionedCall/functional_1/efficientnetb0_1/block5b_se_reduce_1/convolution/ReadVariableOp", "shape": [1, 1, 672, 28], "dtype": "float32"}, {"name": "StatefulPartitionedCall/functional_1/efficientnetb0_1/block5b_se_reduce_1/Squeeze", "shape": [28], "dtype": "float32"}, {"name": "StatefulPartitionedCall/functional_1/efficientnetb0_1/block5b_se_expand_1/convolution/ReadVariableOp", "shape": [1, 1, 28, 672], "dtype": "float32"}, {"name": "StatefulPartitionedCall/functional_1/efficientnetb0_1/block5b_se_expand_1/Squeeze", "shape": [672], "dtype": "float32"}, {"name": "StatefulPartitionedCall/functional_1/efficientnetb0_1/block5b_project_conv_1/convolution/merged_input", "shape": [1, 1, 672, 112], "dtype": "float32"}, {"name": "StatefulPartitionedCall/functional_1/efficientnetb0_1/block4c_project_bn_1/batchnorm/sub", "shape": [1, 1, 1, 80], "dtype": "float32"}, {"name": "StatefulPartitionedCall/functional_1/efficientnetb0_1/block4c_expand_conv_1/convolution/merged_input", "shape": [1, 1, 80, 480], "dtype": "float32"}, {"name": "StatefulPartitionedCall/functional_1/efficientnetb0_1/block4c_expand_bn_1/batchnorm/sub", "shape": [1, 1, 1, 480], "dtype": "float32"}, {"name": "StatefulPartitionedCall/functional_1/efficientnetb0_1/block4c_dwconv_1/depthwise/ReadVariableOp", "shape": [3, 3, 480, 1], "dtype": "float32"}, {"name": "StatefulPartitionedCall/functional_1/efficientnetb0_1/block4c_bn_1/batchnorm/mul", "shape": [1, 1, 1, 480], "dtype": "float32"}, {"name": "StatefulPartitionedCall/functional_1/efficientnetb0_1/block4c_bn_1/batchnorm/sub", "shape": [1, 1, 1, 480], "dtype": "float32"}, {"name": "StatefulPartitionedCall/functional_1/efficientnetb0_1/block4c_se_squeeze_1/Mean/reduction_indices", "shape": [2], "dtype": "int32"}, {"name": "StatefulPartitionedCall/functional_1/efficientnetb0_1/block4c_se_reshape_1/strided_slice/stack", "shape": [1], "dtype": "int32"}, {"name": "StatefulPartitionedCall/functional_1/efficientnetb0_1/block4c_se_reshape_1/strided_slice/stack_1", "shape": [1], "dtype": "int32"}, {"name": "StatefulPartitionedCall/functional_1/efficientnetb0_1/block4c_se_reshape_1/strided_slice/stack_2", "shape": [1], "dtype": "int32"}, {"name": "StatefulPartitionedCall/functional_1/efficientnetb0_1/block4c_se_reshape_1/Reshape/shape/1", "shape": [], "dtype": "int32"}, {"name": "StatefulPartitionedCall/functional_1/efficientnetb0_1/block4c_se_reshape_1/Reshape/shape/2", "shape": [], "dtype": "int32"}, {"name": "StatefulPartitionedCall/functional_1/efficientnetb0_1/block4c_se_reshape_1/Reshape/shape/3", "shape": [], "dtype": "int32"}, {"name": "StatefulPartitionedCall/functional_1/efficientnetb0_1/block4c_se_reduce_1/convolution/ReadVariableOp", "shape": [1, 1, 480, 20], "dtype": "float32"}, {"name": "StatefulPartitionedCall/functional_1/efficientnetb0_1/block4c_se_reduce_1/Squeeze", "shape": [20], "dtype": "float32"}, {"name": "StatefulPartitionedCall/functional_1/efficientnetb0_1/block4c_se_expand_1/convolution/ReadVariableOp", "shape": [1, 1, 20, 480], "dtype": "float32"}, {"name": "StatefulPartitionedCall/functional_1/efficientnetb0_1/block4c_se_expand_1/Squeeze", "shape": [480], "dtype": "float32"}, {"name": "StatefulPartitionedCall/functional_1/efficientnetb0_1/block4c_project_conv_1/convolution/merged_input", "shape": [1, 1, 480, 80], "dtype": "float32"}, {"name": "StatefulPartitionedCall/functional_1/efficientnetb0_1/block4b_project_bn_1/batchnorm/sub", "shape": [1, 1, 1, 80], "dtype": "float32"}, {"name": "StatefulPartitionedCall/functional_1/efficientnetb0_1/block4b_expand_conv_1/convolution/merged_input", "shape": [1, 1, 80, 480], "dtype": "float32"}, {"name": "StatefulPartitionedCall/functional_1/efficientnetb0_1/block4b_expand_bn_1/batchnorm/sub", "shape": [1, 1, 1, 480], "dtype": "float32"}, {"name": "StatefulPartitionedCall/functional_1/efficientnetb0_1/block4b_dwconv_1/depthwise/ReadVariableOp", "shape": [3, 3, 480, 1], "dtype": "float32"}, {"name": "StatefulPartitionedCall/functional_1/efficientnetb0_1/block4b_bn_1/batchnorm/mul", "shape": [1, 1, 1, 480], "dtype": "float32"}, {"name": "StatefulPartitionedCall/functional_1/efficientnetb0_1/block4b_bn_1/batchnorm/sub", "shape": [1, 1, 1, 480], "dtype": "float32"}, {"name": "StatefulPartitionedCall/functional_1/efficientnetb0_1/block4b_se_squeeze_1/Mean/reduction_indices", "shape": [2], "dtype": "int32"}, {"name": "StatefulPartitionedCall/functional_1/efficientnetb0_1/block4b_se_reshape_1/strided_slice/stack", "shape": [1], "dtype": "int32"}, {"name": "StatefulPartitionedCall/functional_1/efficientnetb0_1/block4b_se_reshape_1/strided_slice/stack_1", "shape": [1], "dtype": "int32"}, {"name": "StatefulPartitionedCall/functional_1/efficientnetb0_1/block4b_se_reshape_1/strided_slice/stack_2", "shape": [1], "dtype": "int32"}, {"name": "StatefulPartitionedCall/functional_1/efficientnetb0_1/block4b_se_reshape_1/Reshape/shape/1", "shape": [], "dtype": "int32"}, {"name": "StatefulPartitionedCall/functional_1/efficientnetb0_1/block4b_se_reshape_1/Reshape/shape/2", "shape": [], "dtype": "int32"}, {"name": "StatefulPartitionedCall/functional_1/efficientnetb0_1/block4b_se_reshape_1/Reshape/shape/3", "shape": [], "dtype": "int32"}, {"name": "StatefulPartitionedCall/functional_1/efficientnetb0_1/block4b_se_reduce_1/convolution/ReadVariableOp", "shape": [1, 1, 480, 20], "dtype": "float32"}, {"name": "StatefulPartitionedCall/functional_1/efficientnetb0_1/block4b_se_reduce_1/Squeeze", "shape": [20], "dtype": "float32"}, {"name": "StatefulPartitionedCall/functional_1/efficientnetb0_1/block4b_se_expand_1/convolution/ReadVariableOp", "shape": [1, 1, 20, 480], "dtype": "float32"}, {"name": "StatefulPartitionedCall/functional_1/efficientnetb0_1/block4b_se_expand_1/Squeeze", "shape": [480], "dtype": "float32"}, {"name": "StatefulPartitionedCall/functional_1/efficientnetb0_1/block4b_project_conv_1/convolution/merged_input", "shape": [1, 1, 480, 80], "dtype": "float32"}, {"name": "StatefulPartitionedCall/functional_1/efficientnetb0_1/block3b_project_bn_1/batchnorm/sub", "shape": [1, 1, 1, 40], "dtype": "float32"}, {"name": "StatefulPartitionedCall/functional_1/efficientnetb0_1/block3b_expand_conv_1/convolution/merged_input", "shape": [1, 1, 40, 240], "dtype": "float32"}, {"name": "StatefulPartitionedCall/functional_1/efficientnetb0_1/block3b_expand_bn_1/batchnorm/sub", "shape": [1, 1, 1, 240], "dtype": "float32"}, {"name": "StatefulPartitionedCall/functional_1/efficientnetb0_1/block3b_dwconv_1/depthwise/ReadVariableOp", "shape": [5, 5, 240, 1], "dtype": "float32"}, {"name": "StatefulPartitionedCall/functional_1/efficientnetb0_1/block3b_bn_1/batchnorm/mul", "shape": [1, 1, 1, 240], "dtype": "float32"}, {"name": "StatefulPartitionedCall/functional_1/efficientnetb0_1/block3b_bn_1/batchnorm/sub", "shape": [1, 1, 1, 240], "dtype": "float32"}, {"name": "StatefulPartitionedCall/functional_1/efficientnetb0_1/block3b_se_squeeze_1/Mean/reduction_indices", "shape": [2], "dtype": "int32"}, {"name": "StatefulPartitionedCall/functional_1/efficientnetb0_1/block3b_se_reshape_1/strided_slice/stack", "shape": [1], "dtype": "int32"}, {"name": "StatefulPartitionedCall/functional_1/efficientnetb0_1/block3b_se_reshape_1/strided_slice/stack_1", "shape": [1], "dtype": "int32"}, {"name": "StatefulPartitionedCall/functional_1/efficientnetb0_1/block3b_se_reshape_1/strided_slice/stack_2", "shape": [1], "dtype": "int32"}, {"name": "StatefulPartitionedCall/functional_1/efficientnetb0_1/block3b_se_reshape_1/Reshape/shape/1", "shape": [], "dtype": "int32"}, {"name": "StatefulPartitionedCall/functional_1/efficientnetb0_1/block3b_se_reshape_1/Reshape/shape/2", "shape": [], "dtype": "int32"}, {"name": "StatefulPartitionedCall/functional_1/efficientnetb0_1/block3b_se_reshape_1/Reshape/shape/3", "shape": [], "dtype": "int32"}, {"name": "StatefulPartitionedCall/functional_1/efficientnetb0_1/block3b_se_reduce_1/convolution/ReadVariableOp", "shape": [1, 1, 240, 10], "dtype": "float32"}, {"name": "StatefulPartitionedCall/functional_1/efficientnetb0_1/block3b_se_reduce_1/Squeeze", "shape": [10], "dtype": "float32"}, {"name": "StatefulPartitionedCall/functional_1/efficientnetb0_1/block3b_se_expand_1/convolution/ReadVariableOp", "shape": [1, 1, 10, 240], "dtype": "float32"}, {"name": "StatefulPartitionedCall/functional_1/efficientnetb0_1/block3b_se_expand_1/Squeeze", "shape": [240], "dtype": "float32"}, {"name": "StatefulPartitionedCall/functional_1/efficientnetb0_1/block3b_project_conv_1/convolution/merged_input", "shape": [1, 1, 240, 40], "dtype": "float32"}, {"name": "StatefulPartitionedCall/functional_1/efficientnetb0_1/block2b_project_bn_1/batchnorm/sub", "shape": [1, 1, 1, 24], "dtype": "float32"}, {"name": "StatefulPartitionedCall/functional_1/efficientnetb0_1/block2b_expand_conv_1/convolution/merged_input", "shape": [1, 1, 24, 144], "dtype": "float32"}, {"name": "StatefulPartitionedCall/functional_1/efficientnetb0_1/block2b_expand_bn_1/batchnorm/sub", "shape": [1, 1, 1, 144], "dtype": "float32"}, {"name": "StatefulPartitionedCall/functional_1/efficientnetb0_1/block2b_dwconv_1/depthwise/ReadVariableOp", "shape": [3, 3, 144, 1], "dtype": "float32"}, {"name": "StatefulPartitionedCall/functional_1/efficientnetb0_1/block2b_bn_1/batchnorm/mul", "shape": [1, 1, 1, 144], "dtype": "float32"}, {"name": "StatefulPartitionedCall/functional_1/efficientnetb0_1/block2b_bn_1/batchnorm/sub", "shape": [1, 1, 1, 144], "dtype": "float32"}, {"name": "StatefulPartitionedCall/functional_1/efficientnetb0_1/block2b_se_squeeze_1/Mean/reduction_indices", "shape": [2], "dtype": "int32"}, {"name": "StatefulPartitionedCall/functional_1/efficientnetb0_1/block2b_se_reshape_1/strided_slice/stack", "shape": [1], "dtype": "int32"}, {"name": "StatefulPartitionedCall/functional_1/efficientnetb0_1/block2b_se_reshape_1/strided_slice/stack_1", "shape": [1], "dtype": "int32"}, {"name": "StatefulPartitionedCall/functional_1/efficientnetb0_1/block2b_se_reshape_1/strided_slice/stack_2", "shape": [1], "dtype": "int32"}, {"name": "StatefulPartitionedCall/functional_1/efficientnetb0_1/block2b_se_reshape_1/Reshape/shape/1", "shape": [], "dtype": "int32"}, {"name": "StatefulPartitionedCall/functional_1/efficientnetb0_1/block2b_se_reshape_1/Reshape/shape/2", "shape": [], "dtype": "int32"}, {"name": "StatefulPartitionedCall/functional_1/efficientnetb0_1/block2b_se_reshape_1/Reshape/shape/3", "shape": [], "dtype": "int32"}, {"name": "StatefulPartitionedCall/functional_1/efficientnetb0_1/block2b_se_reduce_1/convolution/ReadVariableOp", "shape": [1, 1, 144, 6], "dtype": "float32"}, {"name": "StatefulPartitionedCall/functional_1/efficientnetb0_1/block2b_se_reduce_1/Squeeze", "shape": [6], "dtype": "float32"}, {"name": "StatefulPartitionedCall/functional_1/efficientnetb0_1/block2b_se_expand_1/convolution/ReadVariableOp", "shape": [1, 1, 6, 144], "dtype": "float32"}, {"name": "StatefulPartitionedCall/functional_1/efficientnetb0_1/block2b_se_expand_1/Squeeze", "shape": [144], "dtype": "float32"}, {"name": "StatefulPartitionedCall/functional_1/efficientnetb0_1/block2b_project_conv_1/convolution/merged_input", "shape": [1, 1, 144, 24], "dtype": "float32"}, {"name": "StatefulPartitionedCall/functional_1/efficientnetb0_1/rescaling_1/Cast/x", "shape": [], "dtype": "float32"}, {"name": "StatefulPartitionedCall/functional_1/efficientnetb0_1/rescaling_1/add", "shape": [1, 1, 1, 3], "dtype": "float32"}, {"name": "StatefulPartitionedCall/functional_1/efficientnetb0_1/normalization_1/truediv", "shape": [1, 1, 1, 3], "dtype": "float32"}, {"name": "StatefulPartitionedCall/functional_1/efficientnetb0_1/rescaling_1_2/Cast_1/x", "shape": [], "dtype": "float32"}, {"name": "StatefulPartitionedCall/functional_1/efficientnetb0_1/stem_conv_pad_1/Const", "shape": [4, 2], "dtype": "int32"}, {"name": "StatefulPartitionedCall/functional_1/efficientnetb0_1/stem_conv_1/convolution/merged_input", "shape": [3, 3, 3, 32], "dtype": "float32"}, {"name": "StatefulPartitionedCall/functional_1/efficientnetb0_1/stem_bn_1/batchnorm/sub", "shape": [1, 1, 1, 32], "dtype": "float32"}, {"name": "StatefulPartitionedCall/functional_1/efficientnetb0_1/block1a_dwconv_1/depthwise/ReadVariableOp", "shape": [3, 3, 32, 1], "dtype": "float32"}, {"name": "StatefulPartitionedCall/functional_1/efficientnetb0_1/block1a_bn_1/batchnorm/mul", "shape": [1, 1, 1, 32], "dtype": "float32"}, {"name": "StatefulPartitionedCall/functional_1/efficientnetb0_1/block1a_bn_1/batchnorm/sub", "shape": [1, 1, 1, 32], "dtype": "float32"}, {"name": "StatefulPartitionedCall/functional_1/efficientnetb0_1/block1a_se_squeeze_1/Mean/reduction_indices", "shape": [2], "dtype": "int32"}, {"name": "StatefulPartitionedCall/functional_1/efficientnetb0_1/block1a_se_reshape_1/strided_slice/stack", "shape": [1], "dtype": "int32"}, {"name": "StatefulPartitionedCall/functional_1/efficientnetb0_1/block1a_se_reshape_1/strided_slice/stack_1", "shape": [1], "dtype": "int32"}, {"name": "StatefulPartitionedCall/functional_1/efficientnetb0_1/block1a_se_reshape_1/strided_slice/stack_2", "shape": [1], "dtype": "int32"}, {"name": "StatefulPartitionedCall/functional_1/efficientnetb0_1/block1a_se_reshape_1/Reshape/shape/1", "shape": [], "dtype": "int32"}, {"name": "StatefulPartitionedCall/functional_1/efficientnetb0_1/block1a_se_reshape_1/Reshape/shape/2", "shape": [], "dtype": "int32"}, {"name": "StatefulPartitionedCall/functional_1/efficientnetb0_1/block1a_se_reshape_1/Reshape/shape/3", "shape": [], "dtype": "int32"}, {"name": "StatefulPartitionedCall/functional_1/efficientnetb0_1/block1a_se_reduce_1/convolution/ReadVariableOp", "shape": [1, 1, 32, 8], "dtype": "float32"}, {"name": "StatefulPartitionedCall/functional_1/efficientnetb0_1/block1a_se_reduce_1/Squeeze", "shape": [8], "dtype": "float32"}, {"name": "StatefulPartitionedCall/functional_1/efficientnetb0_1/block1a_se_expand_1/convolution/ReadVariableOp", "shape": [1, 1, 8, 32], "dtype": "float32"}, {"name": "StatefulPartitionedCall/functional_1/efficientnetb0_1/block1a_se_expand_1/Squeeze", "shape": [32], "dtype": "float32"}, {"name": "StatefulPartitionedCall/functional_1/efficientnetb0_1/block1a_project_conv_1/convolution/merged_input", "shape": [1, 1, 32, 16], "dtype": "float32"}, {"name": "StatefulPartitionedCall/functional_1/efficientnetb0_1/block1a_project_bn_1/batchnorm/sub", "shape": [1, 1, 1, 16], "dtype": "float32"}, {"name": "StatefulPartitionedCall/functional_1/efficientnetb0_1/block2a_expand_conv_1/convolution/merged_input", "shape": [1, 1, 16, 96], "dtype": "float32"}, {"name": "StatefulPartitionedCall/functional_1/efficientnetb0_1/block2a_expand_bn_1/batchnorm/sub", "shape": [1, 1, 1, 96], "dtype": "float32"}, {"name": "StatefulPartitionedCall/functional_1/efficientnetb0_1/block2a_dwconv_pad_1/Const", "shape": [4, 2], "dtype": "int32"}, {"name": "StatefulPartitionedCall/functional_1/efficientnetb0_1/block2a_dwconv_1/depthwise/ReadVariableOp", "shape": [3, 3, 96, 1], "dtype": "float32"}, {"name": "StatefulPartitionedCall/functional_1/efficientnetb0_1/block2a_bn_1/batchnorm/mul", "shape": [1, 1, 1, 96], "dtype": "float32"}, {"name": "StatefulPartitionedCall/functional_1/efficientnetb0_1/block2a_bn_1/batchnorm/sub", "shape": [1, 1, 1, 96], "dtype": "float32"}, {"name": "StatefulPartitionedCall/functional_1/efficientnetb0_1/block2a_se_squeeze_1/Mean/reduction_indices", "shape": [2], "dtype": "int32"}, {"name": "StatefulPartitionedCall/functional_1/efficientnetb0_1/block2a_se_reshape_1/strided_slice/stack", "shape": [1], "dtype": "int32"}, {"name": "StatefulPartitionedCall/functional_1/efficientnetb0_1/block2a_se_reshape_1/strided_slice/stack_1", "shape": [1], "dtype": "int32"}, {"name": "StatefulPartitionedCall/functional_1/efficientnetb0_1/block2a_se_reshape_1/strided_slice/stack_2", "shape": [1], "dtype": "int32"}, {"name": "StatefulPartitionedCall/functional_1/efficientnetb0_1/block2a_se_reshape_1/Reshape/shape/1", "shape": [], "dtype": "int32"}, {"name": "StatefulPartitionedCall/functional_1/efficientnetb0_1/block2a_se_reshape_1/Reshape/shape/2", "shape": [], "dtype": "int32"}, {"name": "StatefulPartitionedCall/functional_1/efficientnetb0_1/block2a_se_reshape_1/Reshape/shape/3", "shape": [], "dtype": "int32"}, {"name": "StatefulPartitionedCall/functional_1/efficientnetb0_1/block2a_se_reduce_1/convolution/ReadVariableOp", "shape": [1, 1, 96, 4], "dtype": "float32"}, {"name": "StatefulPartitionedCall/functional_1/efficientnetb0_1/block2a_se_reduce_1/Squeeze", "shape": [4], "dtype": "float32"}, {"name": "StatefulPartitionedCall/functional_1/efficientnetb0_1/block2a_se_expand_1/convolution/ReadVariableOp", "shape": [1, 1, 4, 96], "dtype": "float32"}, {"name": "StatefulPartitionedCall/functional_1/efficientnetb0_1/block2a_se_expand_1/Squeeze", "shape": [96], "dtype": "float32"}, {"name": "StatefulPartitionedCall/functional_1/efficientnetb0_1/block2a_project_conv_1/convolution/merged_input", "shape": [1, 1, 96, 24], "dtype": "float32"}, {"name": "StatefulPartitionedCall/functional_1/efficientnetb0_1/block2a_project_bn_1/batchnorm/sub", "shape": [1, 1, 1, 24], "dtype": "float32"}, {"name": "StatefulPartitionedCall/functional_1/efficientnetb0_1/block3a_expand_conv_1/convolution/merged_input", "shape": [1, 1, 24, 144], "dtype": "float32"}, {"name": "StatefulPartitionedCall/functional_1/efficientnetb0_1/block3a_expand_bn_1/batchnorm/sub", "shape": [1, 1, 1, 144], "dtype": "float32"}, {"name": "StatefulPartitionedCall/functional_1/efficientnetb0_1/block3a_dwconv_pad_1/Const", "shape": [4, 2], "dtype": "int32"}, {"name": "StatefulPartitionedCall/functional_1/efficientnetb0_1/block3a_dwconv_1/depthwise/ReadVariableOp", "shape": [5, 5, 144, 1], "dtype": "float32"}, {"name": "StatefulPartitionedCall/functional_1/efficientnetb0_1/block3a_bn_1/batchnorm/mul", "shape": [1, 1, 1, 144], "dtype": "float32"}, {"name": "StatefulPartitionedCall/functional_1/efficientnetb0_1/block3a_bn_1/batchnorm/sub", "shape": [1, 1, 1, 144], "dtype": "float32"}, {"name": "StatefulPartitionedCall/functional_1/efficientnetb0_1/block3a_se_squeeze_1/Mean/reduction_indices", "shape": [2], "dtype": "int32"}, {"name": "StatefulPartitionedCall/functional_1/efficientnetb0_1/block3a_se_reshape_1/strided_slice/stack", "shape": [1], "dtype": "int32"}, {"name": "StatefulPartitionedCall/functional_1/efficientnetb0_1/block3a_se_reshape_1/strided_slice/stack_1", "shape": [1], "dtype": "int32"}, {"name": "StatefulPartitionedCall/functional_1/efficientnetb0_1/block3a_se_reshape_1/strided_slice/stack_2", "shape": [1], "dtype": "int32"}, {"name": "StatefulPartitionedCall/functional_1/efficientnetb0_1/block3a_se_reshape_1/Reshape/shape/1", "shape": [], "dtype": "int32"}, {"name": "StatefulPartitionedCall/functional_1/efficientnetb0_1/block3a_se_reshape_1/Reshape/shape/2", "shape": [], "dtype": "int32"}, {"name": "StatefulPartitionedCall/functional_1/efficientnetb0_1/block3a_se_reshape_1/Reshape/shape/3", "shape": [], "dtype": "int32"}, {"name": "StatefulPartitionedCall/functional_1/efficientnetb0_1/block3a_se_reduce_1/convolution/ReadVariableOp", "shape": [1, 1, 144, 6], "dtype": "float32"}, {"name": "StatefulPartitionedCall/functional_1/efficientnetb0_1/block3a_se_reduce_1/Squeeze", "shape": [6], "dtype": "float32"}, {"name": "StatefulPartitionedCall/functional_1/efficientnetb0_1/block3a_se_expand_1/convolution/ReadVariableOp", "shape": [1, 1, 6, 144], "dtype": "float32"}, {"name": "StatefulPartitionedCall/functional_1/efficientnetb0_1/block3a_se_expand_1/Squeeze", "shape": [144], "dtype": "float32"}, {"name": "StatefulPartitionedCall/functional_1/efficientnetb0_1/block3a_project_conv_1/convolution/merged_input", "shape": [1, 1, 144, 40], "dtype": "float32"}, {"name": "StatefulPartitionedCall/functional_1/efficientnetb0_1/block3a_project_bn_1/batchnorm/sub", "shape": [1, 1, 1, 40], "dtype": "float32"}, {"name": "StatefulPartitionedCall/functional_1/efficientnetb0_1/block4a_expand_conv_1/convolution/merged_input", "shape": [1, 1, 40, 240], "dtype": "float32"}, {"name": "StatefulPartitionedCall/functional_1/efficientnetb0_1/block4a_expand_bn_1/batchnorm/sub", "shape": [1, 1, 1, 240], "dtype": "float32"}, {"name": "StatefulPartitionedCall/functional_1/efficientnetb0_1/block4a_dwconv_pad_1/Const", "shape": [4, 2], "dtype": "int32"}, {"name": "StatefulPartitionedCall/functional_1/efficientnetb0_1/block4a_dwconv_1/depthwise/ReadVariableOp", "shape": [3, 3, 240, 1], "dtype": "float32"}, {"name": "StatefulPartitionedCall/functional_1/efficientnetb0_1/block4a_bn_1/batchnorm/mul", "shape": [1, 1, 1, 240], "dtype": "float32"}, {"name": "StatefulPartitionedCall/functional_1/efficientnetb0_1/block4a_bn_1/batchnorm/sub", "shape": [1, 1, 1, 240], "dtype": "float32"}, {"name": "StatefulPartitionedCall/functional_1/efficientnetb0_1/block4a_se_squeeze_1/Mean/reduction_indices", "shape": [2], "dtype": "int32"}, {"name": "StatefulPartitionedCall/functional_1/efficientnetb0_1/block4a_se_reshape_1/strided_slice/stack", "shape": [1], "dtype": "int32"}, {"name": "StatefulPartitionedCall/functional_1/efficientnetb0_1/block4a_se_reshape_1/strided_slice/stack_1", "shape": [1], "dtype": "int32"}, {"name": "StatefulPartitionedCall/functional_1/efficientnetb0_1/block4a_se_reshape_1/strided_slice/stack_2", "shape": [1], "dtype": "int32"}, {"name": "StatefulPartitionedCall/functional_1/efficientnetb0_1/block4a_se_reshape_1/Reshape/shape/1", "shape": [], "dtype": "int32"}, {"name": "StatefulPartitionedCall/functional_1/efficientnetb0_1/block4a_se_reshape_1/Reshape/shape/2", "shape": [], "dtype": "int32"}, {"name": "StatefulPartitionedCall/functional_1/efficientnetb0_1/block4a_se_reshape_1/Reshape/shape/3", "shape": [], "dtype": "int32"}, {"name": "StatefulPartitionedCall/functional_1/efficientnetb0_1/block4a_se_reduce_1/convolution/ReadVariableOp", "shape": [1, 1, 240, 10], "dtype": "float32"}, {"name": "StatefulPartitionedCall/functional_1/efficientnetb0_1/block4a_se_reduce_1/Squeeze", "shape": [10], "dtype": "float32"}, {"name": "StatefulPartitionedCall/functional_1/efficientnetb0_1/block4a_se_expand_1/convolution/ReadVariableOp", "shape": [1, 1, 10, 240], "dtype": "float32"}, {"name": "StatefulPartitionedCall/functional_1/efficientnetb0_1/block4a_se_expand_1/Squeeze", "shape": [240], "dtype": "float32"}, {"name": "StatefulPartitionedCall/functional_1/efficientnetb0_1/block4a_project_conv_1/convolution/merged_input", "shape": [1, 1, 240, 80], "dtype": "float32"}, {"name": "StatefulPartitionedCall/functional_1/efficientnetb0_1/block4a_project_bn_1/batchnorm/sub", "shape": [1, 1, 1, 80], "dtype": "float32"}, {"name": "StatefulPartitionedCall/functional_1/efficientnetb0_1/block5a_expand_conv_1/convolution/merged_input", "shape": [1, 1, 80, 480], "dtype": "float32"}, {"name": "StatefulPartitionedCall/functional_1/efficientnetb0_1/block5a_expand_bn_1/batchnorm/sub", "shape": [1, 1, 1, 480], "dtype": "float32"}, {"name": "StatefulPartitionedCall/functional_1/efficientnetb0_1/block5a_dwconv_1/depthwise/ReadVariableOp", "shape": [5, 5, 480, 1], "dtype": "float32"}, {"name": "StatefulPartitionedCall/functional_1/efficientnetb0_1/block5a_bn_1/batchnorm/mul", "shape": [1, 1, 1, 480], "dtype": "float32"}, {"name": "StatefulPartitionedCall/functional_1/efficientnetb0_1/block5a_bn_1/batchnorm/sub", "shape": [1, 1, 1, 480], "dtype": "float32"}, {"name": "StatefulPartitionedCall/functional_1/efficientnetb0_1/block5a_se_squeeze_1/Mean/reduction_indices", "shape": [2], "dtype": "int32"}, {"name": "StatefulPartitionedCall/functional_1/efficientnetb0_1/block5a_se_reshape_1/strided_slice/stack", "shape": [1], "dtype": "int32"}, {"name": "StatefulPartitionedCall/functional_1/efficientnetb0_1/block5a_se_reshape_1/strided_slice/stack_1", "shape": [1], "dtype": "int32"}, {"name": "StatefulPartitionedCall/functional_1/efficientnetb0_1/block5a_se_reshape_1/strided_slice/stack_2", "shape": [1], "dtype": "int32"}, {"name": "StatefulPartitionedCall/functional_1/efficientnetb0_1/block5a_se_reshape_1/Reshape/shape/1", "shape": [], "dtype": "int32"}, {"name": "StatefulPartitionedCall/functional_1/efficientnetb0_1/block5a_se_reshape_1/Reshape/shape/2", "shape": [], "dtype": "int32"}, {"name": "StatefulPartitionedCall/functional_1/efficientnetb0_1/block5a_se_reshape_1/Reshape/shape/3", "shape": [], "dtype": "int32"}, {"name": "StatefulPartitionedCall/functional_1/efficientnetb0_1/block5a_se_reduce_1/convolution/ReadVariableOp", "shape": [1, 1, 480, 20], "dtype": "float32"}, {"name": "StatefulPartitionedCall/functional_1/efficientnetb0_1/block5a_se_reduce_1/Squeeze", "shape": [20], "dtype": "float32"}, {"name": "StatefulPartitionedCall/functional_1/efficientnetb0_1/block5a_se_expand_1/convolution/ReadVariableOp", "shape": [1, 1, 20, 480], "dtype": "float32"}, {"name": "StatefulPartitionedCall/functional_1/efficientnetb0_1/block5a_se_expand_1/Squeeze", "shape": [480], "dtype": "float32"}, {"name": "StatefulPartitionedCall/functional_1/efficientnetb0_1/block5a_project_conv_1/convolution/merged_input", "shape": [1, 1, 480, 112], "dtype": "float32"}, {"name": "StatefulPartitionedCall/functional_1/efficientnetb0_1/block5a_project_bn_1/batchnorm/sub", "shape": [1, 1, 1, 112], "dtype": "float32"}, {"name": "StatefulPartitionedCall/functional_1/efficientnetb0_1/block6a_expand_conv_1/convolution/merged_input", "shape": [1, 1, 112, 672], "dtype": "float32"}, {"name": "StatefulPartitionedCall/functional_1/efficientnetb0_1/block6a_expand_bn_1/batchnorm/sub", "shape": [1, 1, 1, 672], "dtype": "float32"}, {"name": "StatefulPartitionedCall/functional_1/efficientnetb0_1/block6a_dwconv_pad_1/Const", "shape": [4, 2], "dtype": "int32"}, {"name": "StatefulPartitionedCall/functional_1/efficientnetb0_1/block6a_dwconv_1/depthwise/ReadVariableOp", "shape": [5, 5, 672, 1], "dtype": "float32"}, {"name": "StatefulPartitionedCall/functional_1/efficientnetb0_1/block6a_bn_1/batchnorm/mul", "shape": [1, 1, 1, 672], "dtype": "float32"}, {"name": "StatefulPartitionedCall/functional_1/efficientnetb0_1/block6a_bn_1/batchnorm/sub", "shape": [1, 1, 1, 672], "dtype": "float32"}, {"name": "StatefulPartitionedCall/functional_1/efficientnetb0_1/block6a_se_squeeze_1/Mean/reduction_indices", "shape": [2], "dtype": "int32"}, {"name": "StatefulPartitionedCall/functional_1/efficientnetb0_1/block6a_se_reshape_1/strided_slice/stack", "shape": [1], "dtype": "int32"}, {"name": "StatefulPartitionedCall/functional_1/efficientnetb0_1/block6a_se_reshape_1/strided_slice/stack_1", "shape": [1], "dtype": "int32"}, {"name": "StatefulPartitionedCall/functional_1/efficientnetb0_1/block6a_se_reshape_1/strided_slice/stack_2", "shape": [1], "dtype": "int32"}, {"name": "StatefulPartitionedCall/functional_1/efficientnetb0_1/block6a_se_reshape_1/Reshape/shape/1", "shape": [], "dtype": "int32"}, {"name": "StatefulPartitionedCall/functional_1/efficientnetb0_1/block6a_se_reshape_1/Reshape/shape/2", "shape": [], "dtype": "int32"}, {"name": "StatefulPartitionedCall/functional_1/efficientnetb0_1/block6a_se_reshape_1/Reshape/shape/3", "shape": [], "dtype": "int32"}, {"name": "StatefulPartitionedCall/functional_1/efficientnetb0_1/block6a_se_reduce_1/convolution/ReadVariableOp", "shape": [1, 1, 672, 28], "dtype": "float32"}, {"name": "StatefulPartitionedCall/functional_1/efficientnetb0_1/block6a_se_reduce_1/Squeeze", "shape": [28], "dtype": "float32"}, {"name": "StatefulPartitionedCall/functional_1/efficientnetb0_1/block6a_se_expand_1/convolution/ReadVariableOp", "shape": [1, 1, 28, 672], "dtype": "float32"}, {"name": "StatefulPartitionedCall/functional_1/efficientnetb0_1/block6a_se_expand_1/Squeeze", "shape": [672], "dtype": "float32"}, {"name": "StatefulPartitionedCall/functional_1/efficientnetb0_1/block6a_project_conv_1/convolution/merged_input", "shape": [1, 1, 672, 192], "dtype": "float32"}, {"name": "StatefulPartitionedCall/functional_1/efficientnetb0_1/block6a_project_bn_1/batchnorm/sub", "shape": [1, 1, 1, 192], "dtype": "float32"}, {"name": "StatefulPartitionedCall/functional_1/efficientnetb0_1/block7a_expand_conv_1/convolution/merged_input", "shape": [1, 1, 192, 1152], "dtype": "float32"}, {"name": "StatefulPartitionedCall/functional_1/efficientnetb0_1/block7a_expand_bn_1/batchnorm/sub", "shape": [1, 1, 1, 1152], "dtype": "float32"}, {"name": "StatefulPartitionedCall/functional_1/efficientnetb0_1/block7a_dwconv_1/depthwise/ReadVariableOp", "shape": [3, 3, 1152, 1], "dtype": "float32"}, {"name": "StatefulPartitionedCall/functional_1/efficientnetb0_1/block7a_bn_1/batchnorm/mul", "shape": [1, 1, 1, 1152], "dtype": "float32"}, {"name": "StatefulPartitionedCall/functional_1/efficientnetb0_1/block7a_bn_1/batchnorm/sub", "shape": [1, 1, 1, 1152], "dtype": "float32"}, {"name": "StatefulPartitionedCall/functional_1/efficientnetb0_1/block7a_se_squeeze_1/Mean/reduction_indices", "shape": [2], "dtype": "int32"}, {"name": "StatefulPartitionedCall/functional_1/efficientnetb0_1/block7a_se_reshape_1/strided_slice/stack", "shape": [1], "dtype": "int32"}, {"name": "StatefulPartitionedCall/functional_1/efficientnetb0_1/block7a_se_reshape_1/strided_slice/stack_1", "shape": [1], "dtype": "int32"}, {"name": "StatefulPartitionedCall/functional_1/efficientnetb0_1/block7a_se_reshape_1/strided_slice/stack_2", "shape": [1], "dtype": "int32"}, {"name": "StatefulPartitionedCall/functional_1/efficientnetb0_1/block7a_se_reshape_1/Reshape/shape/1", "shape": [], "dtype": "int32"}, {"name": "StatefulPartitionedCall/functional_1/efficientnetb0_1/block7a_se_reshape_1/Reshape/shape/2", "shape": [], "dtype": "int32"}, {"name": "StatefulPartitionedCall/functional_1/efficientnetb0_1/block7a_se_reshape_1/Reshape/shape/3", "shape": [], "dtype": "int32"}, {"name": "StatefulPartitionedCall/functional_1/efficientnetb0_1/block7a_se_reduce_1/convolution/ReadVariableOp", "shape": [1, 1, 1152, 48], "dtype": "float32"}, {"name": "StatefulPartitionedCall/functional_1/efficientnetb0_1/block7a_se_reduce_1/Squeeze", "shape": [48], "dtype": "float32"}, {"name": "StatefulPartitionedCall/functional_1/efficientnetb0_1/block7a_se_expand_1/convolution/ReadVariableOp", "shape": [1, 1, 48, 1152], "dtype": "float32"}, {"name": "StatefulPartitionedCall/functional_1/efficientnetb0_1/block7a_se_expand_1/Squeeze", "shape": [1152], "dtype": "float32"}, {"name": "StatefulPartitionedCall/functional_1/efficientnetb0_1/block7a_project_conv_1/convolution/merged_input", "shape": [1, 1, 1152, 320], "dtype": "float32"}, {"name": "StatefulPartitionedCall/functional_1/efficientnetb0_1/block7a_project_bn_1/batchnorm/sub", "shape": [1, 1, 1, 320], "dtype": "float32"}, {"name": "StatefulPartitionedCall/functional_1/efficientnetb0_1/top_conv_1/convolution/merged_input", "shape": [1, 1, 320, 1280], "dtype": "float32"}, {"name": "StatefulPartitionedCall/functional_1/efficientnetb0_1/top_bn_1/batchnorm/sub", "shape": [1, 1, 1, 1280], "dtype": "float32"}, {"name": "StatefulPartitionedCall/functional_1/global_average_pooling2d_1/Mean/reduction_indices", "shape": [2], "dtype": "int32"}, {"name": "StatefulPartitionedCall/functional_1/dense_1/Cast/ReadVariableOp", "shape": [1280, 256], "dtype": "float32"}, {"name": "StatefulPartitionedCall/functional_1/dense_1/BiasAdd/ReadVariableOp", "shape": [256], "dtype": "float32"}, {"name": "StatefulPartitionedCall/functional_1/dense_1_2/Cast/ReadVariableOp", "shape": [256, 6], "dtype": "float32"}, {"name": "StatefulPartitionedCall/functional_1/dense_1_2/BiasAdd/ReadVariableOp", "shape": [6], "dtype": "float32"}]}]}